models/local_dqn_episode_30.pth (torch, 6129 bytes, 6 tensors)

0.weight f4 [24, 3]
0	0x3e95caaa	0.29256183
1	0x3d44d240	0.048052073
2	0xbef0fd39	-0.47068194
3	0xbe7ec33c	-0.24879164
4	0xbd329440	-0.043598413
5	0xbd8d0270	-0.068852305
6	0xbf506e19	-0.81417996
7	0xbe373168	-0.1788994
8	0x3f5bf5df	0.85922045
9	0xba20e18b	-0.0006137124
10	0x3f082c24	0.53192353
11	0xbf2b9389	-0.67021996
12	0xbec80a11	-0.3907018
13	0x3ef42fe0	0.47692776
14	0x3e053d8c	0.1301176
15	0xbf40e64a	-0.75351393
16	0xbc11ae80	-0.008891702
17	0x3eb53fb1	0.35400155
18	0xbf9f39f4	-1.2439561
19	0xbe839c59	-0.2570522
20	0x3ebc948e	0.36832088
21	0x3fbd21f9	1.4775993
22	0x3f00d02a	0.50317633
23	0x3f393f2b	0.7236201
24	0x3f2ccc42	0.6749917
25	0x3bc18680	0.005905926
26	0xbd7d0301	-0.061770443
27	0x3f94d212	1.1626608
28	0x3f0ff518	0.5623336
29	0x3deb0367	0.11475258
30	0x3f8c6a72	1.0969985
31	0x3efbb92c	0.49164712
32	0x3d70b758	0.0587686
33	0x3eefcc83	0.46835718
34	0xbe821570	-0.2540698
35	0x3ee163b7	0.4402139
36	0xbf7b45b1	-0.98153216
37	0xbedc9f30	-0.430902
38	0x3e649f59	0.22326411
39	0xbe339dcc	-0.17540663
40	0x3e06f81c	0.13180584
41	0xbca2fb20	-0.019895136
42	0x3f8bbade	1.0916402
43	0xbeb82561	-0.35966018
44	0xbeeb8c2b	-0.46005377
45	0xbf2543d4	-0.6455662
46	0x3e8cf246	0.2752859
47	0xbe3f58fb	-0.18686287
48	0x3f5df51b	0.86702126
49	0xbf11b6b5	-0.56919414
50	0xbedfefbc	-0.4373759
51	0xbf3542cc	-0.7080505
52	0xbebf6de0	-0.37388515
53	0x3f3dab6d	0.740897
54	0x3f7e8520	0.9942188
55	0x3e01e7f8	0.12686145
56	0xbe0af51e	-0.13570067
57	0x3ed4615a	0.41480523
58	0x3ee0e3e4	0.43923867
59	0xbe96ad14	-0.29428923
60	0x3f59772f	0.84947485
61	0xbdcaec6c	-0.09908375
62	0x3c8d9b36	0.017285924
63	0x3f56fd3d	0.8398016
64	0xbe1f44e0	-0.15553617
65	0xbe7adad7	-0.24497543
66	0x3f90260c	1.1261611
67	0xbf015c4e	-0.5053147
68	0x3d316040	0.04330468
69	0xbf505fde	-0.8139628
70	0x3ea79c86	0.32736605
71	0xbe1de11f	-0.15417908

0.bias f4 [24]
0	0xbf036956	-0.51332605
1	0xbe1c49c2	-0.15262511
2	0xbc62e3a1	-0.013848216
3	0x3f8d8331	1.1055661
4	0xbef228dc	-0.47296798
5	0xbbad539a	-0.005289507
6	0x3f027a8e	0.50968254
7	0xbe75e7f6	-0.24014267
8	0x3f6113d1	0.8792086
9	0x3f0bcdd2	0.5461093
10	0x3e888faa	0.26672107
11	0xbde16abd	-0.11006687
12	0x3eb71f46	0.35766047
13	0xbe9fc565	-0.31205288
14	0x3f784e3d	0.9699438
15	0x3f65771f	0.8963489
16	0x3f580f8c	0.8439872
17	0xbc3acaa7	-0.011400855
18	0x3f1e5908	0.618546
19	0xbf0683b6	-0.52544725
20	0x3f8c8610	1.0978413
21	0x3f49f25a	0.78885424
22	0x3f4fc1df	0.811552
23	0x3f82c640	1.0216751

2.weight f4 [24, 24]
0	0xbe0a9cac	-0.13536328
1	0xbd25b894	-0.04045923
2	0x3ec83eaf	0.39110324
3	0x3f29cc16	0.66327035
4	0x3e39d6cc	0.18148345
5	0x3e023c6a	0.12718359
6	0x3e00d8d4	0.12582713
7	0x3cdfdecd	0.02732792
8	0x3f1411ca	0.57839644
9	0x3ee6931a	0.45034105
10	0x3f035d63	0.5131437
11	0xbf30d648	-0.6907697
12	0x3ec7dcae	0.39035553
13	0x3e08782c	0.13327092
14	0x3efb160e	0.49040264
15	0x3ecd068e	0.40044063
16	0x3f062c95	0.52411777
17	0x3f0d7be7	0.55267185
18	0x3f276858	0.6539359
19	0xbdb292de	-0.08719419
20	0x3ec000db	0.37500653
21	0x3f2288bf	0.6348991
22	0x3f2ddbce	0.6791352
23	0x3ee1f4bf	0.4413204
24	0x3c379fa0	0.011207491
25	0x3c152eb0	0.009105369
26	0x3e38ca16	0.1804584
27	0x3de66e7f	0.11251544
28	0xbdb689e3	-0.089130186
29	0xbd2a2b2c	-0.04154508
30	0x3e14aa92	0.14518192
31	0xbddd5cf1	-0.10808743
32	0xbe580fc4	-0.21099764
33	0x3d07fba1	0.033198956
34	0xbdcb97f5	-0.09941093
35	0xbe4dcee5	-0.20098455
36	0x3ddf0100	0.108888626
37	0xbdbc0326	-0.09180288
38	0x3db0519c	0.08609316
39	0x3d529564	0.051412
40	0xbe7935b2	-0.2433689
41	0xbe471e2f	-0.19445108
42	0xbcaa5971	-0.020794602
43	0x3d29eda4	0.041486397
44	0x3d764f34	0.060134128
45	0x3d5356c5	0.05159642
46	0xbe620c8a	-0.22075096
47	0x3e147263	0.1449676
48	0xbdc2ca96	-0.095112965
49	0x3e26050a	0.1621286
50	0x3f4429df	0.7662639
51	0x3f0dcf65	0.55394584
52	0x3d6ebe60	0.058287024
53	0x3dd789f4	0.10524359
54	0xbcb0debb	-0.021590581
55	0x3e95a48d	0.29227105
56	0x3f275709	0.6536718
57	0x3f01add7	0.50655884
58	0x3f38bbc7	0.72161525
59	0xbec8d8f0	-0.3922801
60	0xbda98b65	-0.082785405
61	0xbdd7e66b	-0.105419956
62	0x3eda03bf	0.42580983
63	0xbe1c1ee3	-0.15246157
64	0x3f19e375	0.60112697
65	0x3f4e1065	0.80493766
66	0x3f17c03f	0.5927772
67	0x3d8eb6bc	0.069684476
68	0x3f07bc50	0.5302172
69	0x3f047aca	0.5174986
70	0x3ec34539	0.3813875
71	0xbe80505e	-0.25061315
72	0x3d646320	0.055758595
73	0x3db112bc	0.086461514
74	0xbe341deb	-0.17589538
75	0xbe52dc9e	-0.20591971
76	0xbe330f72	-0.1748636
77	0xbdbfb3bc	-0.093604535
78	0xbe2e46ea	-0.17019239
79	0xbe1c7e25	-0.15282495
80	0xbe308504	-0.17238241
81	0xbdc56b8a	-0.09639652
82	0xbe3f109b	-0.18658678
83	0x3da85d54	0.08220926
84	0xbddf059d	-0.108897425
85	0xbce5c668	-0.028048709
86	0x3d63c630	0.05560893
87	0xbe372a73	-0.17887287
88	0x3d8d18df	0.068895094
89	0xbccc1750	-0.02491346
90	0x3d87ac2d	0.06624637
91	0x3db134b0	0.086526275
92	0xbdcd16d0	-0.10014117
93	0x3e25715f	0.16156529
94	0xbdb6ba46	-0.089222476
95	0xbe203c82	-0.15648082
96	0x3d54dec8	0.051970273
97	0x3d8077f4	0.06272879
98	0x3e29ed68	0.1659447
99	0xbd179020	-0.037002683
100	0x3e503066	0.20330963
101	0x3e1f93e8	0.15583766
102	0xbda15a32	-0.078785315
103	0xbd3e6a5c	-0.04648815
104	0x3db99730	0.0906204
105	0xbde2d666	-0.110760495
106	0xbcb55230	-0.022133917
107	0x3e1c045a	0.15236035
108	0x3aaadb00	0.0013035238
109	0x3db7768c	0.08958158
110	0xbdcf9b24	-0.101370126
111	0x3e413346	0.18867216
112	0x3db4360c	0.08799371
113	0xbe133eea	-0.14379469
114	0x3d9e5ff8	0.07733148
115	0xbc8ef2a0	-0.017449677
116	0x3d9509ec	0.07277283
117	0xbe17534a	-0.14777866
118	0xbdeade40	-0.11468172
119	0xbdcb1c75	-0.09917537
120	0xbddda341	-0.10822154
121	0xbb79c940	-0.003811434
122	0x3ed40ef4	0.41417658
123	0x3f102b2e	0.56315887
124	0x3e3ada58	0.18247354
125	0x3e205a28	0.15659392
126	0x3ea83f8f	0.3286099
127	0x3d9540e8	0.072877705
128	0x3eeb137c	0.45913303
129	0x3ef33fff	0.47509763
130	0x3f33f3cd	0.70293885
131	0xbe8a944c	-0.27066267
132	0x3d2dbc5b	0.042415958
133	0xbc955618	-0.01822953
134	0x3edc9d24	0.4308864
135	0xbec36ed3	-0.3817049
136	0x3f33623c	0.7007177
137	0x3f4cffcc	0.80077815
138	0x3f21de1c	0.63229537
139	0xbe063c86	-0.13109025
140	0x3ef22064	0.47290337
141	0x3f33a9fc	0.7018125
142	0x3f08c35b	0.5342309
143	0xbe883457	-0.26602432
144	0xbcad9fe0	-0.021194398
145	0xbd742938	-0.05960962
146	0x3e95a229	0.2922528
147	0x3f47f731	0.7811156
148	0x3ddd3a68	0.10802156
149	0x3f087c89	0.53315026
150	0x3f08228f	0.5317773
151	0xbec21cd9	-0.37912634
152	0x3e4af73d	0.19820876
153	0x3ddb49eb	0.10707458
154	0xbe5cc23a	-0.21558467
155	0xbed8868f	-0.4229016
156	0x3f39fc8e	0.7265099
157	0x3e2f2924	0.17105538
158	0x3e412fbb	0.18865864
159	0x3f666f7c	0.9001386
160	0x3eb0719a	0.3446167
161	0x3ed6b053	0.419314
162	0x3e019c96	0.12657389
163	0xbd3a5360	-0.04548967
164	0x3df7b58b	0.120951734
165	0x3db1a727	0.0867446
166	0x3e902b18	0.28157878
167	0x3f2c1018	0.6721206
168	0x3e34ec2e	0.1766822
169	0x3d31ee74	0.043440297
170	0x3e0794b8	0.13240325
171	0x3e23a4ca	0.15980831
172	0x3d320374	0.043460324
173	0xbe333525	-0.17500742
174	0x3ce3d680	0.027812243
175	0x3de7e208	0.11322409
176	0x3cff4720	0.031161845
177	0xbe38336e	-0.17988369
178	0x3d820b54	0.06349817
179	0x3d72b638	0.05925581
180	0x3e0653fa	0.13117972
181	0x3d881a30	0.0664562
182	0xbd1ed76c	-0.03877966
183	0xbe19c1f6	-0.15015396
184	0xbcc4cca8	-0.024023369
185	0x3bfa6c40	0.007642299
186	0x3adb7a80	0.0016744882
187	0x3d95d8d4	0.07316747
188	0xbc3ca7b0	-0.011514589
189	0xbdc237cf	-0.09483301
190	0xbe1b70ac	-0.151797
191	0xbdbc9b22	-0.09209277
192	0xbe1b39f7	-0.1515883
193	0xbcb6cb60	-0.022313774
194	0x3f3328bd	0.69984037
195	0x3ee3f94e	0.44526142
196	0xbd397ae8	-0.04528323
197	0x3df9303b	0.12167402
198	0xbd4edc7a	-0.05050323
199	0x3f1630a8	0.58667994
200	0x3f189961	0.5960904
201	0x3f2d20d4	0.67628217
202	0x3f2094fa	0.6272732
203	0xbe3892bc	-0.18024725
204	0xbdb2ce9e	-0.08730815
205	0xbda3952b	-0.07987436
206	0x3ef5412a	0.4790128
207	0xbf39c481	-0.72565466
208	0x3edeff38	0.4355409
209	0x3f390143	0.7226755
210	0x3f18b92b	0.59657544
211	0xbe1607f5	-0.14651473
212	0x3f09009a	0.5351654
213	0x3f128b0b	0.5724341
214	0x3f3433e0	0.70391655
215	0xbee067e6	-0.43829268
216	0x3ccd2d98	0.025046155
217	0xbdf07bc1	-0.11742354
218	0x3dea7420	0.1144793
219	0x3df694c0	0.120400906
220	0xbde15552	-0.11002602
221	0x3c5af140	0.013363183
222	0x3d8caf18	0.06869334
223	0xbd3cf9f4	-0.04613681
224	0xbd99f846	-0.075180575
225	0x3e33160a	0.17488876
226	0xbc7b37c0	-0.015333116
227	0xbd87c6e0	-0.06629729
228	0xbbfe7e80	-0.007766545
229	0x3d450f30	0.048110187
230	0x3e4ed9c6	0.20200261
231	0xbe4a5178	-0.1975764
232	0xbe107d86	-0.14110383
233	0xbdf46ce5	-0.119348325
234	0xbe0e2973	-0.13882999
235	0x3bb1f120	0.0054303557
236	0xbc877600	-0.016535759
237	0x3d0f9c1c	0.035060987
238	0xbe0a3f79	-0.13500775
239	0xbe4cc10c	-0.19995517
240	0xbe2d4b88	-0.16923344
241	0xbe3fc0d9	-0.1872591
242	0xbdae636a	-0.085150555
243	0x3d79cb0a	0.06098465
244	0x3e2859c8	0.16440499
245	0xbe30020b	-0.1718828
246	0x3ddbc659	0.10731191
247	0x3dc0bd0a	0.09411056
248	0x3c90d6df	0.017680584
249	0xbe1899e7	-0.14902459
250	0x3c203bc5	0.009779875
251	0xbdd5077f	-0.104018204
252	0xbe23b5cb	-0.15987317
253	0xbe3bb9dc	-0.18332618
254	0xbe2fc9e8	-0.17166865
255	0xbdf2049a	-0.11817284

2.bias f4 [24]
0	0x3f0c06a9	0.5469766
1	0xbe0c92ca	-0.1372787
2	0x3eba114a	0.36341316
3	0x3e077fc4	0.13232332
4	0xbe27a8e1	-0.16373016
5	0x3eb2085b	0.34772
6	0x3f1a197a	0.60195124
7	0xbd9e8c9c	-0.07741663
8	0x3e0caa5d	0.13736863
9	0xbdcf33f8	-0.10117334
10	0xbcd6b33c	-0.026208512
11	0x3f00880d	0.50207597
12	0xbd5abdc4	-0.05340363
13	0x3e3fc983	0.18729214
14	0x3f0f4619	0.55966336
15	0x3e7235ec	0.23653382
16	0x3f1b8665	0.60751945
17	0x3ed0e902	0.4080277
18	0x3cd60f28	0.026130274
19	0xbe1dec13	-0.15422086
20	0x3e84063d	0.2578601
21	0xbe0deabd	-0.13859077
22	0x3ee28edb	0.44249615
23	0xbe2c4779	-0.1682414

4.weight f4 [3, 24]
0	0x3f228ba1	0.63494307
1	0xbd5d9cf0	-0.054104745
2	0x3e63725a	0.2221159
3	0xbdafe049	-0.08587701
4	0x3c867150	0.016411453
5	0x3e95eaee	0.292808
6	0x3f4643e5	0.7744735
7	0x3e4ff4ae	0.20308182
8	0x3e05510b	0.13019197
9	0xbc45cc40	-0.012072623
10	0xbdbbae7a	-0.09164138
11	0x3efcb27e	0.4935493
12	0x3ced3fe8	0.028961137
13	0x3ed15288	0.4088328
14	0x3ebd2234	0.36940157
15	0x3e0e56c7	0.1390029
16	0x3f01884c	0.505986
17	0x3e922a33	0.2854782
18	0x3df8ad78	0.121424615
19	0x3e284a50	0.16434598
20	0x3f2dab4b	0.678395
21	0x3e37a39f	0.1793351
22	0x3dc277eb	0.09495529
23	0x3e2b8d7e	0.16753194
24	0x3f054480	0.5205765
25	0x3d84e971	0.06489838
26	0x3f5dffc5	0.867184
27	0xbe441477	-0.19148432
28	0x3e4513ae	0.19245788
29	0x3f534623	0.82528895
30	0xbf912a3b	-1.1341013
31	0x3e4b7b92	0.19871357
32	0x3f822d22	1.0170023
33	0x3b4e4d00	0.0031479
34	0xbc8946f4	-0.016757466
35	0x3f168e77	0.58811134
36	0xbe065a32	-0.13120344
37	0xbf218801	-0.6309815
38	0x3f377495	0.71662265
39	0x3f423525	0.7586234
40	0x3f153d4a	0.58296645
41	0x3f20bc5e	0.62787426
42	0x3e0bdf8a	0.13659492
43	0xbe1ec01f	-0.15502976
44	0xbfa68c89	-1.3011638
45	0x3de2922c	0.11063036
46	0x3f7ec509	0.995194
47	0x3dbc8c00	0.092063904
48	0x3eb55c12	0.35421807
49	0x3b755de3	0.0037439994
50	0x3e832439	0.25613573
51	0xbe2dd2b7	-0.16974913
52	0x3e44745e	0.19185016
53	0x3e65d970	0.22446227
54	0x3f652ff7	0.89526314
55	0x3e29177e	0.16512868
56	0x3d695951	0.056969944
57	0xbe3c645e	-0.18397662
58	0x3dd00db4	0.10158864
59	0x3ec73b53	0.38912448
60	0x3d299d3c	0.041409716
61	0x3fa0d2e1	1.2564355
62	0x3e068d9a	0.13139954
63	0xbdeb7c7f	-0.11498355
64	0x3e46c395	0.19410546
65	0xbd0d2f75	-0.034469087
66	0x3e4ea978	0.20181835
67	0xbc9ce3d0	-0.019151598
68	0x3f94f801	1.1638185
69	0x3b0d4040	0.0021553189
70	0x3c78a424	0.015175853
71	0x3d14beac	0.03631465

4.bias f4 [3]
0	0x3e288e0e	0.1646044
1	0xbddf4e38	-0.10903591
2	0x3e86cceb	0.26328215
