models/local_dqn_episode_40.pth (torch, 6129 bytes, 6 tensors)

0.weight f4 [24, 3]
000000 aa ca 95 3e 40 d2 44 3d 39 fd f0 be 3c c3 7e be
       0.29256183 0.048052073 -0.47068194 -0.24879164
000010 40 94 32 bd 70 02 8d bd ab 1f 53 bf 68 31 37 be
       -0.043598413 -0.068852305 -0.82470196 -0.1788994
000020 a6 26 44 3f 85 50 95 bd 24 2c 08 3f 87 ec 15 bf
       0.7662147 -0.072907485 0.53192353 -0.5856404
000030 11 0a c8 be e0 2f f4 3e 8c 3d 05 3e 4a e6 40 bf
       -0.3907018 0.47692776 0.1301176 -0.75351393
000040 80 ae 11 bc db 23 b1 3e f4 39 9f bf 59 9c 83 be
       -0.008891702 0.34597668 -1.2439561 -0.2570522
000050 32 1f af 3e 17 45 ad 3f 2a d0 00 3f 19 df 3c 3f
       0.34203488 1.353671 0.50317633 0.7377792
000060 bf e1 0f 3f 80 86 c1 3b ec fe 55 bd fb 6c 86 3f
       0.56203836 0.005905926 -0.052245066 1.0502008
000070 18 f5 0f 3f 7b 63 02 3e 7c c2 7a 3f 2c b9 fb 3e
       0.5623336 0.12733261 0.9795301 0.49164712
000080 c4 2c 99 3d 42 4d 16 3f 70 15 82 be 54 46 d3 3e
       0.074792415 0.58711636 -0.2540698 0.41264594
000090 b1 45 7b bf 30 9f dc be 2f 66 61 3e cc 9d 33 be
       -0.98153216 -0.430902 0.22011636 -0.17540663
0000a0 1c f8 06 3e 20 fb a2 bc 8e 77 7b 3f 61 25 b8 be
       0.13180584 -0.019895136 0.982293 -0.35966018
0000b0 66 0b cc be 30 aa 03 bf 46 f2 8c 3e 1a fd 5e be
       -0.39852446 -0.5143156 0.2752859 -0.21776238
0000c0 3d e1 41 3f b5 b6 11 bf fa 1f b4 be 5c 2c 24 bf
       0.7573431 -0.56919414 -0.35180646 -0.6413019
0000d0 e0 6d bf be e5 b6 40 3f e1 5c 61 3f f8 e7 01 3e
       -0.37388515 0.75279075 0.88032347 0.12686145
0000e0 c3 2d fc bd 5a 61 d4 3e e4 e3 e0 3e 14 ad 96 be
       -0.12313416 0.41480523 0.43923867 -0.29428923
0000f0 7a e6 3c 3f 6c ec ca bd ab 7c bd 3c fa b8 3a 3f
       0.7378918 -0.09908375 0.023130735 0.729385
000100 e0 44 1f be ca f5 71 be 5d ef 81 3f 4e 5c 01 bf
       -0.15553617 -0.23628917 1.0151173 -0.5053147
000110 2b 41 5d 3d 12 8f 2e bf 86 9c a7 3e b3 67 54 be
       0.054017227 -0.6818706 0.32736605 -0.20742683

0.bias f4 [24]
000000 56 69 03 bf c2 49 1c be 8d a8 d5 bc bd 17 62 3f
       -0.51332605 -0.15262511 -0.026081348 0.8831747
000010 dc 28 f2 be f6 f6 c3 bc f0 71 57 3e 08 46 b9 be
       -0.47296798 -0.023921471 0.21039557 -0.36186242
000020 6c bb 36 3f e2 57 c4 3e e0 72 12 3e 51 8f 9a bc
       0.71379733 0.383483 0.14301634 -0.018867167
000030 be 1c bf 3c 65 c5 9f be ec a6 4f 3f f7 7c 61 3f
       0.023329135 -0.31205288 0.8111408 0.88081306
000040 47 a7 30 3f 78 9b 01 3c c4 a4 ee 3e b6 83 06 bf
       0.69005245 0.007910602 0.4661008 -0.52544725
000050 24 99 6f 3f 4a e7 1c 3f e5 44 25 3f fc 45 80 3f
       0.9359305 0.6129042 0.6455825 1.0021358

2.weight f4 [24, 24]
000000 ac 9c 0a be 94 b8 25 bd 09 17 cf 3e af ff c2 3e
       -0.13536328 -0.04045923 0.40447262 0.38085696
000010 cc d6 39 3e d2 50 01 3e f4 b2 2f bd 8d fd 4b bd
       0.18148345 0.12628487 -0.042895272 -0.04980235
000020 88 68 b8 3e c9 df 8f 3e 07 fb bd 3e 07 4c 3f bf
       0.3601725 0.28100422 0.3710558 -0.74725384
000030 7f a9 88 3e 2c 78 08 3e 80 10 88 3e cf 9d 09 3e
       0.26691815 0.13327092 0.26575089 0.13439105
000040 8c 33 97 3e 3e ba 0e 3f f6 b2 ea 3e de 92 b2 bd
       0.29531515 0.55752933 0.4583966 -0.08719419
000050 ec 93 22 3e c3 e1 d5 3e bd 83 f8 3e a6 37 39 3e
       0.1587674 0.41773805 0.48538008 0.18087634
000060 a0 9f 37 3c b0 2e 15 3c 16 ca 38 3e 7f 6e e6 3d
       0.011207491 0.009105369 0.1804584 0.11251544
000070 e3 89 b6 bd 2c 2b 2a bd 92 aa 14 3e f1 5c dd bd
       -0.089130186 -0.04154508 0.14518192 -0.10808743
000080 c4 0f 58 be a1 fb 07 3d f5 97 cb bd e5 ce 4d be
       -0.21099764 0.033198956 -0.09941093 -0.20098455
000090 00 01 df 3d 26 03 bc bd 9c 51 b0 3d 64 95 52 3d
       0.108888626 -0.09180288 0.08609316 0.051412
0000a0 b2 35 79 be 2f 1e 47 be 71 59 aa bc a4 ed 29 3d
       -0.2433689 -0.19445108 -0.020794602 0.041486397
0000b0 34 4f 76 3d c5 56 53 3d 8a 0c 62 be 63 72 14 3e
       0.060134128 0.05159642 -0.22075096 0.1449676
0000c0 96 ca c2 bd 0a 05 26 3e d7 d2 1b 3f bd 9f d0 3e
       -0.095112965 0.1621286 0.6086859 0.4074687
0000d0 60 be 6e 3d da 5f 36 bd 44 af 70 bd ad c8 47 3e
       0.058287024 -0.044525005 -0.058760896 0.19510145
0000e0 19 61 07 3f 4d a8 c5 3e 43 bf 19 3f 85 71 f6 be
       0.52882534 0.38604966 0.6005747 -0.48133484
0000f0 49 bf 00 be 6b e6 d7 bd c4 f6 95 3e f1 88 75 be
       -0.1257297 -0.105419956 0.2928983 -0.2397802
000100 fa 0e ef 3e 65 53 26 3f df 90 ee 3e bc b6 8e 3d
       0.46691114 0.64971 0.46594903 0.069684476
000110 b2 2c d0 3e bb b7 c6 3e 37 5d 84 3e 3a 5a 9e be
       0.406591 0.3881205 0.25852367 -0.30928212
000120 20 63 64 3d bc 12 b1 3d eb 1d 34 be 9e dc 52 be
       0.055758595 0.086461514 -0.17589538 -0.20591971
000130 72 0f 33 be bc b3 bf bd ea 46 2e be 25 7e 1c be
       -0.1748636 -0.093604535 -0.17019239 -0.15282495
000140 04 85 30 be 8a 6b c5 bd 9b 10 3f be 54 5d a8 3d
       -0.17238241 -0.09639652 -0.18658678 0.08220926
000150 9d 05 df bd 68 c6 e5 bc 30 c6 63 3d 73 2a 37 be
       -0.108897425 -0.028048709 0.05560893 -0.17887287
000160 df 18 8d 3d 50 17 cc bc 2d ac 87 3d b0 34 b1 3d
       0.068895094 -0.02491346 0.06624637 0.086526275
000170 d0 16 cd bd 5f 71 25 3e 46 ba b6 bd 82 3c 20 be
       -0.10014117 0.16156529 -0.089222476 -0.15648082
000180 c8 de 54 3d f4 77 80 3d 32 66 09 3e 20 90 17 bd
       0.051970273 0.06272879 0.1341789 -0.037002683
000190 66 30 50 3e 74 19 fe 3d 93 68 e2 bd 90 43 a0 bd
       0.20330963 0.124071985 -0.11055102 -0.078253865
0001a0 a8 11 71 3d 61 f2 11 be 8e c5 5c bd 5a fa f6 3d
       0.05885473 -0.14252616 -0.05389934 0.120594695
0001b0 b3 8b f9 bc 8c 76 b7 3d 24 9b cf bd 17 ac 20 3e
       -0.030462122 0.08958158 -0.101370126 0.15690647
0001c0 0c 36 b4 3d 20 c6 33 be a0 a3 3a 3d a0 f2 8e bc
       0.08799371 -0.17556047 0.0455662 -0.017449677
0001d0 13 f7 27 3d 44 da 37 be 4f f6 15 be 6d 15 06 be
       0.041007113 -0.17954355 -0.1464474 -0.13094111
0001e0 41 a3 dd bd 40 c9 79 bb 20 9a 9d 3e 6f 52 c5 3e
       -0.10822154 -0.003811434 0.3078165 0.38539454
0001f0 58 da 3a 3e fa e8 5d 3d 5d c3 82 3e 39 7e ae bc
       0.18247354 0.054177262 0.25539675 -0.021300422
000200 5a bb a3 3e a8 35 b2 3e de 35 14 3f 73 43 b5 be
       0.31978875 0.3480656 0.57894695 -0.35403022
000210 68 b1 a2 bc 18 56 95 bc 14 44 91 3e c2 f8 05 bf
       -0.019859985 -0.01822953 0.28372252 -0.523327
000220 55 30 0d 3f 95 8b 31 3f 84 b4 fd 3e 86 3c 06 be
       0.55151874 0.6935361 0.49551785 -0.13109025
000230 f1 9c ab 3e 9e 12 0f 3f 94 82 cd 3e ab 24 c8 be
       0.33518174 0.5588778 0.40138686 -0.39090475
000240 e0 9f ad bc 38 29 74 bd 71 26 c3 3e 20 0e 2c 3f
       -0.021194398 -0.05960962 0.38115266 0.67209053
000250 68 3a dd 3d b9 80 1c 3f 4b 16 8d 3e 10 68 8f be
       0.10802156 0.61133915 0.2755607 -0.2800908
000260 54 bd 44 3e 85 13 27 3e 42 4e ff bd 24 35 ab be
       0.19212848 0.1631604 -0.12466098 -0.3343898
000270 fe fb 07 3f 24 29 2f 3e 79 89 54 3e fa c2 19 3f
       0.53118885 0.17105538 0.20755567 0.60063136
000280 4b a2 b7 3e 46 52 ff 3e 20 24 2d 3e 60 53 3a bd
       0.35866007 0.49867457 0.16908312 -0.04548967
000290 22 5d e9 3d 2d 5a d3 3d 0e 7b 9f 3e a6 59 b0 3e
       0.11394717 0.10319934 0.3114857 0.34443396
0002a0 2e ec 34 3e 74 ee 31 3d b8 94 07 3e ca a4 23 3e
       0.1766822 0.043440297 0.13240325 0.15980831
0002b0 74 03 32 3d 25 35 33 be 80 d6 e3 3c 08 e2 e7 3d
       0.043460324 -0.17500742 0.027812243 0.11322409
0002c0 20 47 ff 3c 6e 33 38 be 54 0b 82 3d 38 b6 72 3d
       0.031161845 -0.17988369 0.06349817 0.05925581
0002d0 fa 53 06 3e 30 1a 88 3d 6c d7 1e bd f6 c1 19 be
       0.13117972 0.0664562 -0.03877966 -0.15015396
0002e0 a8 cc c4 bc 40 6c fa 3b 80 7a db 3a d4 d8 95 3d
       -0.024023369 0.007642299 0.0016744882 0.07316747
0002f0 b0 a7 3c bc cf 37 c2 bd ac 70 1b be 22 9b bc bd
       -0.011514589 -0.09483301 -0.151797 -0.09209277
000300 f7 39 1b be 60 cb b6 bc f8 b8 13 3f 1c 81 ab 3e
       -0.1515883 -0.022313774 0.57704115 0.3349694
000310 e8 7a 39 bd 84 e4 08 3c c3 92 0d 3d fc 45 fb 3e
       -0.04528323 0.008355264 0.03456379 0.4907683
000320 06 b9 fa 3e 4a 99 10 3f c8 8c 02 3f 6d e0 87 be
       0.48969287 0.564839 0.50996065 -0.2653841
000330 5f 86 ff bc 2b 95 a3 bd 77 9e b8 3e 93 33 3a bf
       -0.031192003 -0.07987436 0.360584 -0.72734946
000340 6e 1d a2 3e e0 4b 1a 3f 58 1b f6 3e f5 07 16 be
       0.31663078 0.60272026 0.48067737 -0.14651473
000350 57 56 dc 3e f4 63 ea 3e 4c 19 18 3f 1f 8d c4 be
       0.43034622 0.45779383 0.594136 -0.38388917
000360 98 2d cd 3c c1 7b f0 bd 20 74 ea 3d c0 94 f6 3d
       0.025046155 -0.11742354 0.1144793 0.120400906
000370 52 55 e1 bd 40 f1 5a 3c 18 af 8c 3d f4 f9 3c bd
       -0.11002602 0.013363183 0.06869334 -0.04613681
000380 46 f8 99 bd 0a 16 33 3e c0 37 7b bc e0 c6 87 bd
       -0.075180575 0.17488876 -0.015333116 -0.06629729
000390 80 7e fe bb 30 0f 45 3d c6 d9 4e 3e 78 51 4a be
       -0.007766545 0.048110187 0.20200261 -0.1975764
0003a0 86 7d 10 be e5 6c f4 bd 73 29 0e be 20 f1 b1 3b
       -0.14110383 -0.119348325 -0.13882999 0.0054303557
0003b0 00 76 87 bc 1c 9c 0f 3d 79 3f 0a be 0c c1 4c be
       -0.016535759 0.035060987 -0.13500775 -0.19995517
0003c0 88 4b 2d be d9 c0 3f be 6a 63 ae bd 0a cb 79 3d
       -0.16923344 -0.1872591 -0.085150555 0.06098465
0003d0 c8 59 28 3e 0b 02 30 be 59 c6 db 3d 0a bd c0 3d
       0.16440499 -0.1718828 0.10731191 0.09411056
0003e0 df d6 90 3c e7 99 18 be c5 3b 20 3c 7f 07 d5 bd
       0.017680584 -0.14902459 0.009779875 -0.104018204
0003f0 cb b5 23 be dc b9 3b be e8 c9 2f be 9a 04 f2 bd
       -0.15987317 -0.18332618 -0.17166865 -0.11817284

2.bias f4 [24]
000000 17 c7 95 3e ca 92 0c be af b3 72 3e c4 7f 07 3e
       0.29253456 -0.1372787 0.23701356 0.13232332
000010 11 30 48 be db eb 49 3e e0 24 00 3f 9c 8c 9e bd
       -0.19549586 0.19718878 0.50056267 -0.07741663
000020 47 93 3c 3d f8 33 cf bd 3c b3 d6 bc 0c 74 8c 3e
       0.046038892 -0.10117334 -0.026208512 0.27432287
000030 c4 bd 5a bd 66 d2 5f bb a6 02 c4 3e 73 40 15 3e
       -0.05340363 -0.0034152507 0.3828327 0.14575367
000040 2c 6e c4 3e d5 fe 82 3e 28 0f d6 3c 13 ec 1d be
       0.38365304 0.25585046 0.026130274 -0.15422086
000050 c1 91 3d 3e bd ea 0d be d7 e3 b9 3e 79 47 2c be
       0.18512632 -0.13859077 0.3630664 -0.1682414

4.weight f4 [3, 24]
000000 8c 49 d8 3e f0 9c 5d bd fe a8 1b 3d 49 e0 af bd
       0.42243612 -0.054104745 0.03800296 -0.08587701
000010 50 71 86 3c 63 68 eb 3d 60 f7 04 3f ae f4 4f 3e
       0.016411453 0.114945196 0.51939964 0.20308182
000020 3b 0f a9 bc 40 cc 45 bc 7a ae bb bd b2 f3 92 3e
       -0.020637145 -0.012072623 -0.09164138 0.2870155
000030 e8 3f ed 3c 71 11 c7 3e 67 43 2e 3e 86 ff 23 bd
       0.028961137 0.38880494 0.170179 -0.040038608
000040 32 3c 95 3e c1 03 99 3d 78 ad f8 3d 50 4a 28 3e
       0.29147488 0.07471419 0.121424615 0.16434598
000050 40 26 d8 3e 9f a3 37 3e cf c6 67 bd 7e 8d 2b 3e
       0.42216682 0.1793351 -0.056586083 0.16753194
000060 fc a6 d9 3e 71 e9 84 3d 48 5a 42 3f 77 14 44 be
       0.4251021 0.06489838 0.7591901 -0.19148432
000070 ae 13 45 3e d1 8d 37 3f 97 2c 9a bf 92 7b 4b 3e
       0.19245788 0.7170077 -1.2044858 0.19871357
000080 2f bd 67 3f 00 4d 4e 3b f4 46 89 bc 27 22 fa 3e
       0.90523046 0.0031479 -0.016757466 0.4885418
000090 32 5a 06 be 17 8c 2c bf 23 d5 1c 3f 2d e1 25 3f
       -0.13120344 -0.6740126 0.6126272 0.64796716
0000a0 05 9c f7 3e 9c 4f 06 3f 8a df 0b 3e 1f c0 1e be
       0.4836122 0.52465224 0.13659492 -0.15502976
0000b0 98 7b af bf 2c 92 e2 3d bf d3 61 3f 00 8c bc 3d
       -1.3709593 0.11063036 0.88213724 0.092063904
0000c0 80 d3 3c 3e e3 5d 75 3b 6c 16 b4 3d b7 d2 2d be
       0.18440056 0.0037439994 0.08793339 -0.16974913
0000d0 94 ef 23 3e a0 ac a0 3d a0 c3 07 3f 7e 17 29 3e
       0.1600936 0.078454256 0.53032875 0.16512868
0000e0 70 d7 c6 bd 5e 64 3c be b4 0d d0 3d 37 d7 84 3e
       -0.0970906 -0.18397662 0.10158864 0.25945446
0000f0 3c 9d 29 3d 8e 70 48 3f 48 51 5f 3d 53 44 52 be
       0.041409716 0.78296745 0.054520875 -0.20533876
000100 8b 25 df 3d 9c e1 4a bd 78 a9 4e 3e d0 e3 9c bc
       0.10895833 -0.049531564 0.20181835 -0.019151598
000110 72 a1 43 3f 40 40 0d 3b e8 53 12 be ac be 14 3d
       0.7641822 0.0021553189 -0.1428982 0.03631465

4.bias f4 [3]
000000 52 a6 ee bd e2 05 3a be e3 bb 1f bd
       -0.11652817 -0.18166307 -0.038997542
