models/local_dqn_episode_5.pth (torch, 6245 bytes, 6 tensors)

0.weight f4 [24, 4]
00000000: 4239 83be ace7 99be 3cb6 e73e 4a3e c13e
00000010: fcc2 d23e e830 cf3e 0e7e a73e 5032 59bd
00000020: 3851 bbbe 6b80 69be 7230 f03e dc6d b73e
00000030: 006f 813b 1ae3 b1be 0802 94bd da01 83be
00000040: b480 393e ce31 c23c 809d d33c 802e babe
00000050: 003c 6d3a b7d1 8a3e f6aa abbe 00dd 613b
00000060: aef2 98be 6abe 89be f465 9b3e ee3e f43e
00000070: 0814 163e f918 d63e 104d b8be d072 053d
00000080: 5e46 95be 0c82 0a3e 14e1 72be bc2b f83e
00000090: 148d cf3e c462 db3e 18ca 33be fc26 2b3e
000000a0: 0078 873a f651 8cbe d810 8abd 18fe ce3d
000000b0: fe82 a63e 94fe 1b3f 623c f5be ec46 ea3e
000000c0: 006c 063c 20d3 c2bd 189f f1be d2f6 fa3e
000000d0: d6b3 b63e cee0 c4be 70bc 2c3d 5cf0 57be
000000e0: fc0d 38be dc81 dc3e 7874 f2bd 7886 7e3e
000000f0: 90ab 733e d68d c5be fe5f 9abe 5cc0 c63e
00000100: 4ca6 2bbe b5dd d63c 20c6 d23c c8f3 853e
00000110: d097 efbd 4081 413c 4045 bd3d 403e ad3d
00000120: 64ce 553e 182e c4be a0ae 053d b645 b93e
00000130: 58ee e93e e085 a43c f0a4 74bd 40db c7be
00000140: 2452 e83e 65ee 81be 9235 c0be e4e2 d43e
00000150: e242 b03e 29b6 ea3d fca6 403e 00bf 4cbc
00000160: 4cb4 ffbe e02d 1d3e 2026 9fbd 54c9 f3be
00000170: c428 633e c46b e7be ccc7 d33e 8af7 e6be
-0.25629622 -0.30059564 0.4525622 0.37742835 0.41164386 0.40467 0.3271336 -0.053026497
-0.36585402 -0.22802894 0.4691196 0.35826004 0.00395 -0.34743577 -0.0722695 -0.2558735
0.18115503 0.02370539 0.025831938 -0.36363602 0.0009049773 0.27113125 -0.3352887 0.0034464002
-0.2987265 -0.26903087 0.30351222 0.47704262 0.14656079 0.41815928 -0.35996294 0.032580197
-0.29155248 0.13526171 -0.23718673 0.48470867 0.40537322 0.4284879 -0.17557561 0.1671409
0.0010335445 -0.2740628 -0.06741494 0.10107058 0.32521814 0.6093533 -0.4789763 0.45757234
0.00820446 -0.09512925 -0.4719169 0.49016434 0.3568408 -0.38452762 0.042171896 -0.21087784
-0.17974085 0.43067825 -0.11838621 0.24855983 0.23795915 -0.38584775 -0.3015136 0.38818634
-0.16762656 0.026228765 0.025729239 0.26162553 -0.11698878 0.011810601 0.09241724 0.08459139
0.20879513 -0.38316417 0.03263724 0.36185998 0.45689654 0.020083368 -0.05972761 -0.39034462
0.45375168 -0.25377193 -0.3754087 0.41579354 0.34426028 0.114605255 0.188137 -0.01249671
-0.49942243 0.15349531 -0.07770944 -0.4761454 0.2218352 -0.45199406 0.4136337 -0.45110732

0.bias f4 [24]
00000000: e52b 493f fe31 733f 7b34 4b3f c0b0 55bd
00000010: 7067 303f 2ac7 26bd 8022 97be 97c2 1abd
00000020: 4813 69be 4702 283f fc2e 3d3f e63d 9abe
00000030: d0c5 a3be b1bf 733f 3cdc 543f 4c75 2ebe
00000040: a01a 343f b0b3 20be d013 b4bd e0b1 f9bd
00000050: a2e2 183f 9297 133f 7643 673f 8015 80bb
0.785826 0.9499816 0.79376954 -0.052170515 0.68907833 -0.04071728 -0.2951851 -0.03778323
-0.22761261 0.65628475 0.7389982 -0.3012535 -0.31986856 0.9521437 0.8314855 -0.17036933
0.70353127 -0.15693545 -0.087928414 -0.1219213 0.59720814 0.5765315 0.9033731 -0.003908813

2.weight f4 [24, 24]
00000000: 9955 db3e 5e72 aa3e d09e d33e 0cd0 debd
00000010: ec18 aa3e 598e 843d 1432 1c3d 59bb 05bd
00000020: f05d 47be 1b85 50bc fc43 ed3e d4af 50be
00000030: 320d 443e 5a16 c63e 149a 2d3e 4a2f c6bd
00000040: 4816 8f3e 68bb 043e fc65 023e b4db 1d3e
00000050: cbb7 083f 9173 cd3e 44c8 a13e 8461 fc3d
00000060: 7094 0f3e d054 25bc 6076 193d 568d 87bd
00000070: c9b8 26be 2407 fa3d cc4b 0c3e 19a7 f8bd
00000080: c0a4 4bbd 48f1 e53c d129 4abe 98d5 aabc
00000090: fb87 e1bd 4e74 e7bd 7835 95bd 680d 843d
000000a0: af1e 32be 28f0 893d 7724 43be f8f1 b83d
000000b0: 9837 d53d 3059 093e c039 7bbb 842e d93d
000000c0: dbe1 cb3e 2943 c13e 9869 1b3f 789c 453e
000000d0: d0a2 1f3f fb63 513e cc15 bb3d 39c6 83bd
000000e0: 51c4 d0bd f2b5 cc3e 1eb7 013f e2c2 533e
000000f0: 587e 9fbd ba6f 923e 147e ba3e d4c7 e8bd
00000100: 4231 173f 90b5 44be 506b 6a3d 20a4 e13c
00000110: 1f4e b13e 93f5 143f c02f 9b3e e437 29be
00000120: bd60 ad3e 1d77 dc3e 47eb 6b3e 7abe 3f3e
00000130: 9b4f 1e3f 9e43 763e 8673 123e ea44 8ebc
00000140: 6409 0ebe 185f c03e e698 e43e 89ce 84bd
00000150: 24a5 dd3d 0265 f63e 3904 9b3e 0a40 1abe
00000160: 6797 913e 985d 99bc 4c52 d93d 1064 0e3d
00000170: b1db ae3e 88bc 243f 671c a33e 9012 3f3c
00000180: 860e 3dbe 7f16 4ebe 9490 d83d b0e6 8f3c
00000190: 79cf 17be 7054 4bbe e02c 49be e547 29be
000001a0: eec3 d8bd f0e4 ddbc 4d2d d2bd c080 a43c
000001b0: 4030 23bc c46e cd3d 8a37 403e 4038 fe3b
000001c0: b250 3b3e 4ed8 173e 20c9 5a3d f464 023e
000001d0: 3bfd 34be be94 4ebe e6ed 30be 582b cd3d
000001e0: 5350 16be c643 593d 23f3 403e ba59 343e
000001f0: b5cd 02bd 9076 b83d 0067 2b3a 0681 103e
00000200: 18a0 6b3d 0f79 2ebe 6351 143e 2090 f6bc
00000210: 8e70 093e 8e51 e03d 5048 f6bd 5f60 40be
00000220: 295d afbc e8f0 163d 6077 05be d0f2 d23d
00000230: 8073 103e d42b 29be 445a 46be 0ce9 14be
00000240: 28e6 ca3c 3dde 2cbe 306f 19bc 3e7c 3f3e
00000250: 10fd e93c 0888 ac3c 0c0a 16be c8f8 1b3e
00000260: 98e4 3f3d 9abc 483e 1e32 453e 63c0 bbbd
00000270: 00d9 eaba 4cd4 90bd 7cfb c7bd af2d e0bd
00000280: 80da 203d 1c6d ccbd 6c69 91bd b709 f4bd
00000290: 7cc5 b8bd 8082 4bbb 4fb5 4bbe d003 283d
000002a0: 98cd de3e 5f79 d93e b8e3 b13e 9835 b73c
000002b0: a245 053f c7bd e53c 740c f23d ef43 26be
000002c0: 7f2b bc3d bb69 1b3e 12ad ce3e ffd1 f9bd
000002d0: 02af eebd bf27 933e cb9c a53e 6cfc 4bbd
000002e0: 1c24 0d3f a089 fabb 8d35 4bbe 5c04 1dbe
000002f0: aabf 2b3f 7c19 293e 7556 e23e 284c bf3d
00000300: 8d26 7b3e 542c bd3e 78fa 183f c08a 28bd
00000310: 5115 d63e 3e8d 3c3e a82b 24be d6cb 3b3e
00000320: bce6 243e 7f42 a43e dd99 6e3e d5b9 0d3e
00000330: 0544 04be 6835 093f 035b 293e 4eec 15be
00000340: 36ad b63e 26ea 94bd 47bc 4ebe 023d 183e
00000350: fb44 1c3f a13d 123f 31ea 423e 00ca 9ebd
00000360: d833 9f3d c87b 39be d664 033e 24b9 6dbd
00000370: 95ec 4dbe fea4 33be 402b ee3b 0420 0cbe
00000380: c958 f5bd 4f8d dabd 50fd bb3d be4d 343e
00000390: 1dd4 debd 9cbc 24bd 3c0b 31be fda8 e4bd
000003a0: 02d7 f6bd 66ef 2a3e 00d1 f73a 6024 e5bc
000003b0: c0b3 61bb 7a3d 3abe 58fd 5a3d a6ea a6bd
000003c0: f23d b93e 217d d93e 1d4b fd3e 0a74 1bbe
000003d0: 3862 2a3f f820 753e a89f 0ebe 26d8 23be
000003e0: 063d 263e 5ea3 e13e 3c32 be3e b154 463e
000003f0: b05b f7bc 0dff e03e 7ef9 073f 2fd0 31be
0.42838743 0.3329038 0.41332102 -0.108795255 0.3322214 0.06472463 0.038133696 -0.03264937
-0.19469428 -0.012727047 0.4634093 -0.20379573 0.19145659 0.38688928 0.16953307 -0.096769884
0.27946687 0.12962115 0.12734216 0.15415841 0.53405446 0.40127233 0.31598103 0.12323287
0.14021468 -0.010091022 0.037466407 -0.066187546 -0.16281427 0.12208393 0.13700789 -0.12141246
-0.049717665 0.028069153 -0.19742514 -0.020853803 -0.11012264 -0.1130148 -0.07285589 0.064478695
-0.17394517 0.06735259 -0.19056879 0.09030527 0.10410994 0.13412929 -0.0038333982 0.10604575
0.39820752 0.37746552 0.60708 0.1929797 0.6235781 0.20448296 0.09135017 -0.06434292
-0.101936944 0.39982563 0.5067004 0.2067981 -0.0778777 0.28600866 0.36424315 -0.11366239
0.59059536 -0.19209886 0.057231247 0.027544081 0.34629914 0.58187217 0.30309868 -0.16525227
0.33862868 0.43059626 0.2303897 0.18725005 0.6184022 0.24049231 0.14301881 -0.017366845
-0.1387077 0.3757255 0.44647902 -0.06484706 0.10822514 0.48123938 0.3027666 -0.15063491
0.28435823 -0.018721387 0.106114 0.034763396 0.34151986 0.64350176 0.31857607 0.0116621405
-0.18462572 -0.20125769 0.10574451 0.017566055 -0.14825238 -0.19856429 -0.19646025 -0.16531332
-0.105842456 -0.027086705 -0.10262547 0.020080924 -0.009960234 0.100308925 0.18771186 0.0077581704
0.18292502 0.14828607 0.053414464 0.12733823 -0.17674725 -0.20173928 -0.17278251 0.10018033
-0.14679079 0.05304315 0.1884275 0.17612353 -0.03193446 0.09006989 0.00065384805 0.14111719
0.057525724 -0.17038368 0.14484172 -0.030098021 0.13421842 0.10953055 -0.12025511 -0.18786763
-0.021406727 0.03685084 -0.13033819 0.10300219 0.1410656 -0.16520625 -0.19370371 -0.14542025
0.02476795 -0.16881652 -0.009364888 0.18699738 0.028563052 0.021060959 -0.1465227 0.15231621
0.046848863 0.19603196 0.192574 -0.09167554 -0.0017917454 -0.070717424 -0.09764764 -0.109462135
0.039270878 -0.099817485 -0.07100186 -0.119159155 -0.09022042 -0.0031053126 -0.19893382 0.04101926
0.4351623 0.4247541 0.34744048 0.022364423 0.52059376 0.028044594 0.118187815 -0.16236852
0.09187984 0.15177052 0.40366417 -0.12198257 -0.11654474 0.2874126 0.32346186 -0.049801275
0.55133224 -0.0076458007 -0.19844647 -0.15333694 0.6708933 0.16513628 0.44206586 0.093406975
0.24526425 0.36947882 0.59757185 -0.041147947 0.41813138 0.18413255 -0.16032279 0.18339476
0.16103643 0.32081982 0.23300882 0.1384042 -0.12916572 0.53597116 0.16538624 -0.14640924
0.35679024 -0.07271223 -0.2018901 0.14867023 0.61042756 0.5712529 0.1903465 -0.07753372
0.0777356 -0.18113625 0.12831435 -0.058037892 -0.2010978 -0.17543408 0.0072683394 -0.13684088
-0.11979825 -0.10671484 0.09179175 0.17607781 -0.10880301 -0.040218934 -0.17289442 -0.111650445
-0.12052728 0.16692886 0.0018906891 -0.027971447 -0.0034439415 -0.18187514 0.053464264 -0.081502244
0.36180073 0.42478278 0.4947137 -0.15180984 0.6655612 0.23938358 -0.13928092 -0.16000423
0.16234216 0.44069952 0.371477 0.19368245 -0.030195087 0.43944588 0.5311507 -0.17364572

2.bias f4 [24]
00000000: 23a2 cc3e c0ab 8d3d 1824 f83e a18b d43e
00000010: c4ef 48bd abbe 01bc 5e65 f8bd bbfc 013e
00000020: 7f87 e13e 60e4 0fbd 2940 513e 3230 4ebe
00000030: 91ea 4d3d 2afa bf3e 5ae0 d6bd b61d 103f
00000040: 40f4 8dbc 6640 d73e 6abe 073f 608e e53d
00000050: ce96 f53d 4cff 9e3e a38c 053e 4659 03bd
0.3996745 0.06917524 0.48465037 0.41512778 -0.049056783 -0.007918994 -0.12128709 0.12694065
0.44048688 -0.035129905 0.20434631 -0.20135573 0.050272528 0.37495548 -0.104920104 0.56295335
-0.017328382 0.4204132 0.53024924 0.112087965 0.11991654 0.3105415 0.1304193 -0.03206756

4.weight f4 [3, 24]
00000000: ec93 99be 412f 49be d6fc c5be 800c 98be
00000010: c0df 2abd ba96 51be b6d1 02be 58c5 cfbe
00000020: ac55 9ebe fee0 4b3e 80a8 f7be b9ae 10be
00000030: 636e b83d dc88 f8be 7c45 a43c 17ad 80be
00000040: a0ff 0c3e ef6e b5bd 8700 ecbe d6d9 40be
00000050: f50d 00bf 9207 36be 7485 0a3e d100 033e
00000060: ad39 08be 2c99 66bd cb19 01bf 7b53 02bf
00000070: d4b5 a63d d83c 0f3e dded 18be 9830 cdbe
00000080: 5ca6 5abe 500c 3abe a9aa 87be c0a0 da3c
00000090: e710 a93c edbf febe d444 b33d 8791 d7be
000000a0: aa51 12be 6b16 f7be a6d0 bcbe cb2d bcbd
000000b0: 7a04 0fbe 2621 ffbe c701 29bd 8928 4c3d
000000c0: 2492 b2be 40a7 5abb afa0 f7be 49c0 02bf
000000d0: 70b5 1bbc 04a6 cf3d 608a 06be 7a09 60be
000000e0: 6abe acbe 7404 253e b804 99be 440b b93d
000000f0: d272 2b3e 7093 6dbe 0df9 c93d 192f c6be
00000100: 7f43 303e 5e07 6abe 632f e4be f122 ebbe
00000110: 8c2a b5be 00a7 fcbe dea5 713d 23b0 ebbd
-0.29995668 -0.19646932 -0.3866946 -0.29697037 -0.04171729 -0.20467654 -0.12775311 -0.4058025
-0.30924737 0.19910046 -0.48370743 -0.14129151 0.090054296 -0.48541915 0.020052664 -0.25132057
0.13769388 -0.088590495 -0.46094152 -0.18833098 -0.50021297 -0.17776325 0.13527471 0.1279328
-0.13303252 -0.05629842 -0.5042998 -0.5090863 0.0814015 0.13988054 -0.14934488 -0.40076137
-0.21352524 -0.1816876 -0.2649739 0.02668798 0.020637942 -0.49755803 0.08753362 -0.42103216
-0.14288965 -0.4825929 -0.36877936 -0.09188422 -0.13966551 -0.49829978 -0.04126146 0.049843345
-0.3487712 -0.003336385 -0.4836478 -0.51074654 -0.009503707 0.10139087 -0.13138723 -0.21878615
-0.33739024 0.1611498 -0.29886413 0.09035352 0.16743019 -0.23200774 0.09861956 -0.38707808
0.17213248 -0.22854373 -0.44567403 -0.45925096 -0.35384023 -0.4934616 0.058996074 -0.11508205

4.bias f4 [3]
00000000: 175f 6abe d59e b2be 8bd7 e1bd
-0.22887836 -0.34886804 -0.1102744
