models/local_dqn_episode_10.pth (torch, 6129 bytes, 6 tensors)

0.weight f4 [24, 3]
0.29256183 0.048052073 -0.47068194 -0.24879164 -0.043598413 -0.068852305 -0.626844 -0.1788994
0.6228102 0.10441596 0.53192353 -0.549719 -0.3907018 0.47692776 0.1301176 -0.6589972
-0.008891702 0.30350435 -1.1557113 -0.2570522 0.26280713 1.3192331 0.50317633 0.700424
0.8007218 0.005905926 0.06840151 1.2808945 0.5623336 0.246624 1.1978189 0.49164712
0.18124004 0.19135697 -0.2540698 0.3260887 -0.88916296 -0.430902 0.13312732 -0.17540663
0.13180584 -0.019895136 1.211703 -0.35966018 -0.32760486 -0.99542767 0.2752859 -0.061647408
0.988903 -0.56919414 -0.30688176 -0.5291379 -0.37388515 0.5199542 1.113487 0.12686145
-0.0062914654 0.41480523 0.43923867 -0.29428923 0.97491646 -0.09908375 0.14715654 0.9634303
-0.15553617 -0.114259705 1.2467395 -0.5053147 0.17374605 -1.1599466 0.32736605 -0.030518347
00000000: aaca 953e 40d2 443d 39fd f0be 3cc3 7ebe
00000010: 4094 32bd 7002 8dbd d978 20bf 6831 37be
00000020: 7d70 1f3f 09d8 d53d 242c 083f 62ba 0cbf
00000030: 110a c8be e02f f43e 8c3d 053e 0ab4 28bf
00000040: 80ae 11bc ec64 9b3e 59ee 93bf 599c 83be
00000050: a88e 863e a1dc a83f 2ad0 003f fd4e 333f
00000060: 1bfc 4c3f 8086 c13b 1716 8c3d 5af4 a33f
00000070: 18f5 0f3f 008b 7c3e 2152 993f 2cb9 fb3e
00000080: fd96 393e 15f3 433e 7015 82be 19f5 a63e
00000090: 2fa0 63bf 309f dcbe 8752 083e cc9d 33be
000000a0: 1cf8 063e 20fb a2bc 1519 9b3f 6125 b8be
000000b0: d3bb a7be 59d4 7ebf 46f2 8c3e fe81 7cbd
000000c0: bf28 7d3f b5b6 11bf 9b1f 9dbe 9575 07bf
000000d0: e06d bfbe b81b 053f be86 8e3f f8e7 013e
000000e0: a328 cebb 5a61 d43e e4e3 e03e 14ad 96be
000000f0: 2094 793f 6cec cabd 34b0 163e 5ea3 763f
00000100: e044 1fbe fe00 eabd 2995 9f3f 4e5c 01bf
00000110: 7cea 313e 2179 94bf 869c a73e 9d01 fabc

0.bias f4 [24]
-0.51332605 -0.15262511 -0.017321238 1.4130852 -0.47296798 0.3574102 0.89364517 -0.0018701302
1.191531 0.85438794 0.5643699 -0.18001375 0.7587059 -0.31205288 1.2769912 1.0859861
1.1535606 -0.020544397 0.92605317 -0.52544725 1.4100156 1.1005383 1.1199503 1.220462
00000000: 5669 03bf c249 1cbe 45e5 8dbc fadf b43f
00000010: dc28 f2be 78fe b63e eec5 643f 281f f5ba
00000020: 1684 983f 2bb9 5a3f 8c7a 103f 8655 38be
00000030: 8d3a 423f 65c5 9fbe 7374 a33f 9801 8b3f
00000040: e0a7 933f b94c a8bc d211 6d3f b683 06bf
00000050: 647b b43f 70de 8c3f 885a 8f3f 1938 9c3f

2.weight f4 [24, 24]
-0.13536328 -0.04045923 0.10291415 0.96305424 0.18148345 0.14023846 0.32490227 0.1613556
0.86858153 0.7088115 0.7464068 -0.36157012 0.6034642 0.13327092 0.77331626 0.69558454
0.809053 0.27002057 0.9248802 -0.08719419 0.665472 0.91889346 0.9538752 0.7327019
0.011207491 0.009105369 0.1804584 0.11251544 -0.089130186 -0.04154508 0.14518192 -0.10808743
-0.21099764 0.033198956 -0.09941093 -0.20098455 0.108888626 -0.09180288 0.08609316 0.051412
-0.2433689 -0.19445108 -0.020794602 0.041486397 0.060134128 0.05159642 -0.22075096 0.1449676
-0.095112965 0.1621286 0.3142611 0.893631 0.058287024 0.021393474 0.03893363 0.36971852
0.9384291 0.74716616 0.94079775 -0.21354267 0.0008618916 -0.105419956 0.7221703 0.05445181
0.9018223 0.35615632 0.85969126 0.069684476 0.81176007 0.8052634 0.64300543 -0.059025694
0.055758595 0.086461514 -0.17589538 -0.20591971 -0.1748636 -0.093604535 -0.17019239 -0.15282495
-0.17238241 -0.09639652 -0.18658678 0.08220926 -0.108897425 -0.028048709 0.05560893 -0.17887287
0.068895094 -0.02491346 0.06624637 0.086526275 -0.10014117 0.16156529 -0.089222476 -0.15648082
0.051970273 0.06272879 0.1659447 -0.037002683 0.20330963 0.15583766 -0.078785315 -0.04648815
0.0906204 -0.110760495 -0.022133917 0.15236035 0.0013035238 0.08958158 -0.101370126 0.18867216
0.08799371 -0.14379469 0.07733148 -0.017449677 0.07277283 -0.14777866 -0.11468172 -0.09917537
-0.10822154 -0.003811434 0.012957254 0.8945368 0.18247354 0.10087711 0.42948857 0.1796766
0.7498604 0.7251432 0.9310829 -0.029410006 0.1635885 -0.01822953 0.72672486 -0.14875738
1.0004042 0.40362522 0.90400386 -0.13109025 0.7614633 0.99226594 0.80364984 -0.045166146
-0.021194398 -0.05960962 0.15548652 0.894596 0.10802156 0.6441486 0.8552095 -0.6137076
0.17900111 -0.004545202 -0.37987837 -0.41924846 1.0579873 0.17105538 0.12652749 1.2706503
0.2934631 0.28708175 0.034461144 -0.04548967 0.10133907 0.035069954 0.20690836 1.0520116
0.1766822 0.043440297 0.13240325 0.15980831 0.043460324 -0.17500742 0.027812243 0.11322409
0.031161845 -0.17988369 0.06349817 0.05925581 0.13117972 0.0664562 -0.03877966 -0.15015396
-0.024023369 0.007642299 0.0016744882 0.07316747 -0.011514589 -0.09483301 -0.151797 -0.09209277
-0.1515883 -0.022313774 0.18726802 0.7801088 -0.04528323 -0.035846792 -0.10422852 0.6279869
0.8652652 0.8971785 0.82538116 -0.036860857 -0.11372653 -0.07987436 0.76090115 -0.6059171
0.72259945 0.21238525 0.8462194 -0.14651473 0.80055803 0.845002 0.9474838 -0.3415231
0.025046155 -0.11742354 0.1144793 0.120400906 -0.11002602 0.013363183 0.06869334 -0.04613681
-0.075180575 0.17488876 -0.015333116 -0.06629729 -0.007766545 0.048110187 0.20200261 -0.1975764
-0.14110383 -0.119348325 -0.13882999 0.0054303557 -0.016535759 0.035060987 -0.13500775 -0.19995517
-0.16923344 -0.1872591 -0.085150555 0.06098465 0.16440499 -0.1718828 0.10731191 0.09411056
0.017680584 -0.14902459 0.009779875 -0.104018204 -0.15987317 -0.18332618 -0.17166865 -0.11817284
00000000: ac9c 0abe 94b8 25bd a7c4 d23d b98a 763f
00000010: ccd6 393e ac9a 0f3e 9759 a63e 673a 253e
00000020: 5c5b 5e3f ac74 353f 8414 3f3f b81f b9be
00000030: a17c 1a3f 2c78 083e 0ef8 453f d411 323f
00000040: 191e 4f3f 2340 8a3e f3c4 6c3f de92 b2bd
00000050: 5f5c 2a3f 9a3c 6b3f 2a31 743f 5a92 3b3f
00000060: a09f 373c b02e 153c 16ca 383e 7f6e e63d
00000070: e389 b6bd 2c2b 2abd 92aa 143e f15c ddbd
00000080: c40f 58be a1fb 073d f597 cbbd e5ce 4dbe
00000090: 0001 df3d 2603 bcbd 9c51 b03d 6495 523d
000000a0: b235 79be 2f1e 47be 7159 aabc a4ed 293d
000000b0: 344f 763d c556 533d 8a0c 62be 6372 143e
000000c0: 96ca c2bd 0a05 263e d5e6 a03e 00c5 643f
000000d0: 60be 6e3d 5e41 af3c df78 1f3d bf4b bd3e
000000e0: e43c 703f 4846 3f3f 1fd8 703f eeaa 5abe
000000f0: 91f0 613a 6be6 d7bd 27e0 383f dc08 5f3d
00000100: d4dd 663f 1f5a b63e ba14 5c3f bcb6 8e3d
00000110: 82cf 4f3f be25 4e3f 019c 243f edc4 71bd
00000120: 2063 643d bc12 b13d eb1d 34be 9edc 52be
00000130: 720f 33be bcb3 bfbd ea46 2ebe 257e 1cbe
00000140: 0485 30be 8a6b c5bd 9b10 3fbe 545d a83d
00000150: 9d05 dfbd 68c6 e5bc 30c6 633d 732a 37be
00000160: df18 8d3d 5017 ccbc 2dac 873d b034 b13d
00000170: d016 cdbd 5f71 253e 46ba b6bd 823c 20be
00000180: c8de 543d f477 803d 68ed 293e 2090 17bd
00000190: 6630 503e e893 1f3e 325a a1bd 5c6a 3ebd
000001a0: 3097 b93d 66d6 e2bd 3052 b5bc 5a04 1c3e
000001b0: 00db aa3a 8c76 b73d 249b cfbd 4633 413e
000001c0: 0c36 b43d ea3e 13be f85f 9e3d a0f2 8ebc
000001d0: ec09 953d 4a53 17be 40de eabd 751c cbbd
000001e0: 41a3 ddbd 40c9 79bb aa4a 543c 5d00 653f
000001f0: 58da 3a3e a998 ce3d ede5 db3e 25fd 373e
00000200: daf6 3f3f fca2 393f 735b 6e3f 41ed f0bc
00000210: be83 273e 1856 95bc a40a 3a3f db53 18be
00000220: 3f0d 803f f7a7 ce3e cc6c 673f 863c 06be
00000230: 42ef 423f 2405 7e3f ffbb 4d3f 2300 39bd
00000240: e09f adbc 3829 74bd dc37 1f3e 3e04 653f
00000250: 683a dd3d ece6 243f 03ef 5a3f f11b 1dbf
00000260: 114c 373e ebef 94bb 6b7f c2be bca7 d6be
00000270: 216c 873f 2429 2f3e 6c90 013e aba4 a23f
00000280: cc40 963e 61fc 923e 2127 0d3d 6053 3abd
00000290: dc8a cf3d 83a5 0f3d c9df 533e 51a8 863f
000002a0: 2eec 343e 74ee 313d b894 073e caa4 233e
000002b0: 7403 323d 2535 33be 80d6 e33c 08e2 e73d
000002c0: 2047 ff3c 6e33 38be 540b 823d 38b6 723d
000002d0: fa53 063e 301a 883d 6cd7 1ebd f6c1 19be
000002e0: a8cc c4bc 406c fa3b 807a db3a d4d8 953d
000002f0: b0a7 3cbc cf37 c2bd ac70 1bbe 229b bcbd
00000300: f739 1bbe 60cb b6bc 30c3 3f3e 36b5 473f
00000310: e87a 39bd 16d4 12bd c375 d5bd c0c3 203f
00000320: 0582 5d3f 7dad 653f 2e4c 533f 69fb 16bd
00000330: 74e9 e8bd 2b95 a3bd 6bca 423f 621d 1bbf
00000340: 47fc 383f 857b 593e d6a1 583f f507 16be
00000350: 5ff1 4c3f 0d52 583f 4c8e 723f 1edc aebe
00000360: 982d cd3c c17b f0bd 2074 ea3d c094 f63d
00000370: 5255 e1bd 40f1 5a3c 18af 8c3d f4f9 3cbd
00000380: 46f8 99bd 0a16 333e c037 7bbc e0c6 87bd
00000390: 807e febb 300f 453d c6d9 4e3e 7851 4abe
000003a0: 867d 10be e56c f4bd 7329 0ebe 20f1 b13b
000003b0: 0076 87bc 1c9c 0f3d 793f 0abe 0cc1 4cbe
000003c0: 884b 2dbe d9c0 3fbe 6a63 aebd 0acb 793d
000003d0: c859 283e 0b02 30be 59c6 db3d 0abd c03d
000003e0: dfd6 903c e799 18be c53b 203c 7f07 d5bd
000003f0: cbb5 23be dcb9 3bbe e8c9 2fbe 9a04 f2bd

2.bias f4 [24]
0.8608405 -0.1372787 0.6802558 0.13232332 -0.16373016 0.6686482 0.720708 -0.07741663
0.4414293 -0.10117334 -0.026208512 0.82390183 -0.05340363 0.574637 0.88126487 0.54185814
0.9258595 0.7250297 0.026130274 -0.12245503 0.34016475 -0.13859077 0.7433536 -0.1682414
00000000: 0b60 5c3f ca92 0cbe 3e25 2e3f c47f 073e
00000010: e1a8 27be 872c 2b3f 5280 383f 9c8c 9ebd
00000020: 0503 e23e f833 cfbd 3cb3 d6bc 3beb 523f
00000030: c4bd 5abd 691b 133f 939a 613f 37b7 0a3f
00000040: 2105 6d3f 8c9b 393f 280f d63c b4c9 fabd
00000050: 132a ae3e bdea 0dbe 6c4c 3e3f 7947 2cbe

4.weight f4 [3, 24]
0.8236622 -0.054104745 0.37297758 -0.08587701 0.016411453 0.4493647 1.0402817 0.20308182
0.2563342 -0.012072623 -0.09164138 0.67392784 0.028961137 0.64780396 0.5374237 0.27427357
0.6865883 0.4540918 0.121424615 0.16434598 0.9509235 0.1793351 0.2123308 0.16753194
0.7585264 0.06489838 1.0096475 -0.19148432 0.19245788 0.99052256 -0.8711129 0.19871357
1.0849526 0.0031479 -0.016757466 0.810035 -0.13120344 -1.1627496 0.9152972 0.8632938
0.8234011 0.8280867 0.13659492 -0.18679225 -1.2595441 0.11063036 1.0471951 0.092063904
0.52235705 0.0037439994 0.402765 -0.16974913 0.19185016 0.37728494 1.2318842 0.16512868
0.17520157 -0.18397662 0.10158864 0.55440736 0.041409716 1.517612 0.29595193 0.01816488
0.3795876 0.13077696 0.20181835 -0.019151598 1.4526945 0.0021553189 0.14009884 0.03631465
00000000: 87db 523f f09c 5dbd ebf6 be3e 49e0 afbd
00000010: 5071 863c 2113 e63e f327 853f aef4 4f3e
00000020: 3c3e 833e 40cc 45bc 7aae bbbd 8986 2c3f
00000030: e83f ed3c 7bd6 253f 9994 093f 966d 8c3e
00000040: 40c4 2f3f b87e e83e 78ad f83d 504a 283e
00000050: b96f 733f 9fa3 373e 3f6d 593e 7e8d 2b3e
00000060: c92e 423f 71e9 843d 213c 813f 7714 44be
00000070: ae13 453e e392 7d3f 4101 5fbf 927b 4b3e
00000080: badf 8a3f 004d 4e3b f446 89bc 745e 4f3f
00000090: 325a 06be fbd4 94bf eb50 6a3f d300 5d3f
000000a0: 6aca 523f 7dfd 533f 8adf 0b3e 7846 3fbe
000000b0: be38 a1bf 2c92 e23d 7d0a 863f 008c bc3d
000000c0: 31b9 053f e35d 753b 3737 ce3e b7d2 2dbe
000000d0: 5e74 443e 7e2b c13e 62ae 9d3f 7e17 293e
000000e0: 0a68 333e 5e64 3cbe b40d d03d a4ed 0d3f
000000f0: 3c9d 293d 1c41 c23f 0387 973e 84ce 943c
00000100: 4e59 c23e 65ea 053e 78a9 4e3e d0e3 9cbc
00000110: e5f1 b93f 4040 0d3b 1276 0f3e acbe 143d

4.bias f4 [3]
0.42195126 0.22908445 0.47245675
00000000: ff09 d83e 1d95 6a3e dae5 f13e
