models/local_dqn_episode_25.pth (torch, 6129 bytes, 6 tensors)

0.weight f4 [24, 3]
00000000: aaca 953e 40d2 443d 39fd f0be 3cc3 7ebe
00000010: 4094 32bd 7002 8dbd 34a9 62bf 6831 37be
00000020: f682 5b3f 0ff8 9a3d 242c 083f 6897 26bf
00000030: 110a c8be e02f f43e 8c3d 053e 4ae6 40bf
00000040: 80ae 11bc 03c2 af3e f439 9fbf 599c 83be
00000050: 92e6 b43e 8e9f c83f 2ad0 003f bf1d 393f
00000060: fb82 433f 8086 c13b 429a 39bd a51e a03f
00000070: 18f5 0f3f dfa7 043e c807 983f 2cb9 fb3e
00000080: ff5c 8e3d 3afc bd3e 7015 82be 8ed1 d43e
00000090: b145 7bbf 309f dcbe 3617 4b3e cc9d 33be
000000a0: 1cf8 063e 20fb a2bc a2d5 963f 6125 b8be
000000b0: 0846 e3be 371e 49bf 46f2 8c3e 5a51 3fbe
000000c0: c93f 743f b5b6 11bf eba3 d6be 1440 3ebf
000000d0: e06d bfbe 6d31 403f 3da3 8a3f f8e7 013e
000000e0: 589d f8bd 5a61 d43e e4e3 e03e 14ad 96be
000000f0: 22e3 6f3f 6cec cabd f598 0a3d 9063 6d3f
00000100: e044 1fbe 8432 69be 215a 9b3f 4e5c 01bf
00000110: 4d79 733d 6abd 73bf 869c a73e 4195 19be
0.29256183 0.048052073 -0.47068194 -0.24879164 -0.043598413 -0.068852305 -0.88539433 -0.1788994
0.85746706 0.07566845 0.53192353 -0.6507478 -0.3907018 0.47692776 0.1301176 -0.75351393
-0.008891702 0.34327707 -1.2439561 -0.2570522 0.3533216 1.5673692 0.50317633 0.72311014
0.76371735 0.005905926 -0.045313127 1.2509352 0.5623336 0.12954663 1.1877375 0.49164712
0.06951331 0.37106496 -0.2540698 0.41566128 -0.98153216 -0.430902 0.19833073 -0.17540663
0.13180584 -0.019895136 1.1783946 -0.35966018 -0.44389367 -0.7856173 0.2752859 -0.18683377
0.9540983 -0.56919414 -0.41921934 -0.74316525 -0.37388515 0.7507542 1.0831066 0.12686145
-0.12139386 0.41480523 0.43923867 -0.29428923 0.9370595 -0.09908375 0.033837277 0.92730045
-0.15553617 -0.22773176 1.213688 -0.5053147 0.059441853 -0.952109 0.32736605 -0.14998342

0.bias f4 [24]
00000000: 5669 03bf c249 1cbe acb5 883c f711 9f3f
00000010: dc28 f2be 79dc e23d 997e 293f e875 15be
00000020: 8a60 803f eecf 293f 13ad bb3e 517c 49be
00000030: a791 043f 65c5 9fbe 129b 8b3f 529c 6e3f
00000040: 7a7f 773f 04d9 9b3c fbfe 3b3f b683 06bf
00000050: 354d 9c3f cccd 693f 2c4e 6e3f 8983 883f
-0.51332605 -0.15262511 0.01668819 1.2427357 -0.47296798 0.11077208 0.662088 -0.14595759
1.0029461 0.663329 0.36655483 -0.19676329 0.5178475 -0.31205288 1.0906699 0.93207276
0.9667889 0.01902438 0.73435944 -0.52544725 1.2211062 0.91329646 0.9308803 1.0665141

2.weight f4 [24, 24]
00000000: ac9c 0abe 94b8 25bd 0deb cb3e 6edf 4e3f
00000010: ccd6 393e 24dd 113e 12ea 653e 414d cc3d
00000020: ca22 373f a5d2 123f 90f5 1f3f f372 1ebf
00000030: 85a8 f83e 2c78 083e 954c 213f d6de 063f
00000040: 9df9 293f 6e89 103f 9deb 483f de92 b2bd
00000050: 3b1d 033f 8da1 453f f675 4f3f f097 103f
00000060: a09f 373c b02e 153c 16ca 383e 7f6e e63d
00000070: e389 b6bd 2c2b 2abd 92aa 143e f15c ddbd
00000080: c40f 58be a1fb 073d f597 cbbd e5ce 4dbe
00000090: 0001 df3d 2603 bcbd 9c51 b03d 6495 523d
000000a0: b235 79be 2f1e 47be 7159 aabc a4ed 293d
000000b0: 344f 763d c556 533d 8a0c 62be 6372 143e
000000c0: 96ca c2bd 0a05 263e 6f66 5c3f 4f9d 2b3f
000000d0: 60be 6e3d 6484 2c3e 9bae 373d 62aa be3e
000000e0: 1929 423f 930c 1b3f d863 513f 4fc9 a1be
000000f0: 33d9 c2bc 6be6 d7bd 89ae 083f b3e0 82bd
00000100: 4590 353f e1a1 663f 381e 323f bcb6 8e3d
00000110: 9790 223f dc93 1f3f b7a5 f73e 50e1 2dbe
00000120: 2063 643d bc12 b13d eb1d 34be 9edc 52be
00000130: 720f 33be bcb3 bfbd ea46 2ebe 257e 1cbe
00000140: 0485 30be 8a6b c5bd 9b10 3fbe 545d a83d
00000150: 9d05 dfbd 68c6 e5bc 30c6 633d 732a 37be
00000160: df18 8d3d 5017 ccbc 2dac 873d b034 b13d
00000170: d016 cdbd 5f71 253e 46ba b6bd 823c 20be
00000180: c8de 543d f477 803d 68ed 293e 2090 17bd
00000190: 6630 503e e893 1f3e 325a a1bd 5c6a 3ebd
000001a0: 3097 b93d 66d6 e2bd 3052 b5bc 5a04 1c3e
000001b0: 00db aa3a 8c76 b73d 249b cfbd 4633 413e
000001c0: 0c36 b43d ea3e 13be f85f 9e3d a0f2 8ebc
000001d0: ec09 953d 4a53 17be 40de eabd 751c cbbd
000001e0: 41a3 ddbd 40c9 79bb 2da2 f73e a45e 303f
000001f0: 58da 3a3e c4df 503e 0a5d ce3e 09ea 1b3e
00000200: 9f18 123f 9e14 143f d44f 4d3f 770b 48be
00000210: 40db e23d 1856 95bc 47aa 0b3f fe25 90be
00000220: e3cc 503f 5861 5f3f 8596 3d3f 863c 06be
00000230: 7a9c 153f 0d69 503f a356 243f e9b2 30be
00000240: e09f adbc 3829 74bd 8231 753e 9a02 573f
00000250: 683a dd3d 0d21 073f 1a51 2a3f 4479 e5be
00000260: ad1a 573e 3144 a63d 56f9 86be 377e f0be
00000270: 720d 5c3f 2429 2f3e 7014 3c3e 506b 863f
00000280: 86cf af3e f202 bf3e f444 df3d 6053 3abd
00000290: cd1c 083e c3d8 ae3d 86e6 8a3e e8f2 533f
000002a0: 2eec 343e 74ee 313d b894 073e caa4 233e
000002b0: 7403 323d 2535 33be 80d6 e33c 08e2 e73d
000002c0: 2047 ff3c 6e33 38be 540b 823d 38b6 723d
000002d0: fa53 063e 301a 883d 6cd7 1ebd f6c1 19be
000002e0: a8cc c4bc 406c fa3b 807a db3a d4d8 953d
000002f0: b0a7 3cbc cf37 c2bd ac70 1bbe 229b bcbd
00000300: f739 1bbe 60cb b6bc 1faf 4c3f e63a 0b3f
00000310: e87a 39bd 964e 393e ae49 e9bc a381 2a3f
00000320: f450 303f 199a 443f e814 383f 6b10 ddbd
00000330: a583 96bd 2b95 a3bd f1b4 133f a85f 2dbf
00000340: 877d 083f 993e 523f 35ec 303f f507 16be
00000350: 25b2 203f edf5 2a3f d6f8 4b3f 2eb6 cdbe
00000360: 982d cd3c c17b f0bd 2074 ea3d c094 f63d
00000370: 5255 e1bd 40f1 5a3c 18af 8c3d f4f9 3cbd
00000380: 46f8 99bd 0a16 333e c037 7bbc e0c6 87bd
00000390: 807e febb 300f 453d c6d9 4e3e 7851 4abe
000003a0: 867d 10be e56c f4bd 7329 0ebe 20f1 b13b
000003b0: 0076 87bc 1c9c 0f3d 793f 0abe 0cc1 4cbe
000003c0: 884b 2dbe d9c0 3fbe 6a63 aebd 0acb 793d
000003d0: c859 283e 0b02 30be 59c6 db3d 0abd c03d
000003e0: dfd6 903c e799 18be c53b 203c 7f07 d5bd
000003f0: cbb5 23be dcb9 3bbe e8c9 2fbe 9a04 f2bd
-0.13536328 -0.04045923 0.39827767 0.80809677 0.18148345 0.14244515 0.22452572 0.099756725
0.7153746 0.5735267 0.62484074 -0.6189415 0.4856607 0.13327092 0.6300748 0.5268377
0.66396505 0.564597 0.7848452 -0.08719419 0.5121648 0.7719963 0.8103937 0.5648184
0.011207491 0.009105369 0.1804584 0.11251544 -0.089130186 -0.04154508 0.14518192 -0.10808743
-0.21099764 0.033198956 -0.09941093 -0.20098455 0.108888626 -0.09180288 0.08609316 0.051412
-0.2433689 -0.19445108 -0.020794602 0.041486397 0.060134128 0.05159642 -0.22075096 0.1449676
-0.095112965 0.1621286 0.860938 0.6703691 0.058287024 0.16847378 0.04484425 0.37239367
0.7584396 0.6056606 0.81792974 -0.315989 -0.02378521 -0.105419956 0.5339132 -0.06390514
0.7092326 0.9009076 0.6957736 0.069684476 0.63501877 0.6233499 0.48368618 -0.16980481
0.055758595 0.086461514 -0.17589538 -0.20591971 -0.1748636 -0.093604535 -0.17019239 -0.15282495
-0.17238241 -0.09639652 -0.18658678 0.08220926 -0.108897425 -0.028048709 0.05560893 -0.17887287
0.068895094 -0.02491346 0.06624637 0.086526275 -0.10014117 0.16156529 -0.089222476 -0.15648082
0.051970273 0.06272879 0.1659447 -0.037002683 0.20330963 0.15583766 -0.078785315 -0.04648815
0.0906204 -0.110760495 -0.022133917 0.15236035 0.0013035238 0.08958158 -0.101370126 0.18867216
0.08799371 -0.14379469 0.07733148 -0.017449677 0.07277283 -0.14777866 -0.11468172 -0.09917537
-0.10822154 -0.003811434 0.48365918 0.6889441 0.18247354 0.2039786 0.40305358 0.15225996
0.5706882 0.5784396 0.80199933 -0.19535623 0.11076975 -0.01822953 0.545567 -0.28153986
0.8156263 0.8725791 0.740578 -0.13109025 0.5844189 0.81410295 0.641947 -0.17255749
-0.021194398 -0.05960962 0.23944667 0.83988345 0.10802156 0.52784806 0.6653 -0.4481908
0.2100627 0.08118475 -0.26362103 -0.46971294 0.85958016 0.17105538 0.18367171 1.0501499
0.34338015 0.37306935 0.10901824 -0.04548967 0.13292237 0.08537438 0.27129 0.8279252
0.1766822 0.043440297 0.13240325 0.15980831 0.043460324 -0.17500742 0.027812243 0.11322409
0.031161845 -0.17988369 0.06349817 0.05925581 0.13117972 0.0664562 -0.03877966 -0.15015396
-0.024023369 0.007642299 0.0016744882 0.07316747 -0.011514589 -0.09483301 -0.151797 -0.09209277
-0.1515883 -0.022313774 0.79954714 0.54386747 -0.04528323 0.18096384 -0.028477516 0.6660406
0.68873525 0.76797634 0.719069 -0.10794147 -0.07349328 -0.07987436 0.5769797 -0.67724085
0.5331654 0.82126766 0.69110423 -0.14651473 0.62771827 0.667815 0.7967657 -0.40178055
0.025046155 -0.11742354 0.1144793 0.120400906 -0.11002602 0.013363183 0.06869334 -0.04613681
-0.075180575 0.17488876 -0.015333116 -0.06629729 -0.007766545 0.048110187 0.20200261 -0.1975764
-0.14110383 -0.119348325 -0.13882999 0.0054303557 -0.016535759 0.035060987 -0.13500775 -0.19995517
-0.16923344 -0.1872591 -0.085150555 0.06098465 0.16440499 -0.1718828 0.10731191 0.09411056
0.017680584 -0.14902459 0.009779875 -0.104018204 -0.15987317 -0.18332618 -0.17166865 -0.11817284

2.bias f4 [24]
00000000: 5d53 313f ca92 0cbe d313 f43e c47f 073e
00000010: e1a8 27be 90ae f03e 4100 2b3f 9c8c 9ebd
00000020: 5662 6c3e f833 cfbd 3cb3 d6bc 2234 253f
00000030: c4bd 5abd 7a62 c03e 03f7 303f 817c ac3e
00000040: 5eca 3f3f 2fb6 083f 280f d63c 13ec 1dbe
00000050: d592 9d3e bdea 0dbe 04cd 073f 7947 2cbe
0.6926783 -0.1372787 0.47671375 0.13232332 -0.16373016 0.4700818 0.6679726 -0.07741663
0.23084387 -0.10117334 -0.026208512 0.64532673 -0.05340363 0.37575132 0.6912691 0.3368874
0.7491816 0.5340299 0.026130274 -0.15422086 0.30776086 -0.13859077 0.53047204 -0.1682414

4.weight f4 [3, 24]
00000000: d9cb 3e3f f09c 5dbd ec66 a43e 49e0 afbd
00000010: 5071 863c 7d2e c93e b759 663f aef4 4f3e
00000020: d3c5 623e 40cc 45bc 7aae bbbd 0906 1a3f
00000030: e83f ed3c c514 fe3e 821a f33e d4a8 703e
00000040: c4a1 1d3f e30a c93e 78ad f83d 504a 283e
00000050: c08e 4d3f 9fa3 373e dc91 3d3e 7e8d 2b3e
00000060: 7af9 173f 71e9 843d dd3c 723f 7714 44be
00000070: ae13 453e 2151 673f 9a17 8bbf 927b 4b3e
00000080: dba0 8c3f 004d 4e3b f446 89bc b8ad 293f
00000090: 325a 06be 5a67 57bf d6f9 4a3f ccea 563f
000000a0: 3742 283f ac41 343f 8adf 0b3e 1fc0 1ebe
000000b0: d977 a1bf 2c92 e23d 97ff 893f 008c bc3d
000000c0: 5cb2 de3e e35d 753b e12f af3e b7d2 2dbe
000000d0: 5e74 443e e029 9b3e 18cd 8b3f 7e17 293e
000000e0: 3722 083e 5e64 3cbe b40d d03d a008 ed3e
000000f0: 3c9d 293d 97cd c23f a4e8 403e 0fe4 82bd
00000100: d721 813e 6b92 223b 78a9 4e3e d0e3 9cbc
00000110: fd8f b23f 4040 0d3b 86a8 b73d acbe 143d
0.74529797 -0.054104745 0.32109773 -0.08587701 0.016411453 0.3929328 0.89980644 0.20308182
0.22145776 -0.012072623 -0.09164138 0.6016546 0.028961137 0.4962522 0.4748116 0.23501903
0.6157496 0.39266118 0.121424615 0.16434598 0.80295944 0.1793351 0.18512672 0.16753194
0.59365046 0.06489838 0.9462412 -0.19148432 0.19245788 0.9035817 -1.0866578 0.19871357
1.0986589 0.0031479 -0.016757466 0.662807 -0.13120344 -0.84142077 0.7928747 0.8395202
0.65726036 0.7041271 0.13659492 -0.15502976 -1.26147 0.11063036 1.0781125 0.092063904
0.43495452 0.0037439994 0.34216216 -0.16974913 0.19185016 0.30305386 1.0921965 0.16512868
0.13294302 -0.18397662 0.10158864 0.46295643 0.041409716 1.5218991 0.18838745 -0.06391155
0.2522113 0.002480651 0.20181835 -0.019151598 1.3950192 0.0021553189 0.0896769 0.03631465

4.bias f4 [3]
00000000: 300d 993e bf06 3bbd 91f8 cf3e
0.29892874 -0.04566073 0.4061933
