models/local_dqn_episode_15.pth (torch, 6129 bytes, 6 tensors)

0.weight f4 [24, 3]
0.29256183 0.048052073 -0.47068194 -0.24879164 -0.043598413 -0.068852305 -0.70885336 -0.1788994
0.6869871 0.17256589 0.53192353 -0.5783309 -0.3907018 0.47692776 0.1301176 -0.72485155
-0.008891702 0.35005423 -1.2158124 -0.2570522 0.3091229 1.4653711 0.50317633 0.77392036
0.88144135 0.005905926 0.04481513 1.3671596 0.5623336 0.2222787 1.2978356 0.49164712
0.16537899 0.22402231 -0.2540698 0.37054032 -0.9532772 -0.430902 0.17728923 -0.17540663
0.13180584 -0.019895136 1.2947952 -0.35966018 -0.35453165 -0.95691633 0.2752859 -0.10826306
1.0706961 -0.56919414 -0.33081743 -0.60888034 -0.37388515 0.5856922 1.1998432 0.12686145
-0.028515536 0.41480523 0.43923867 -0.29428923 1.0544763 -0.09908375 0.12421607 1.0442035
-0.15553617 -0.13895755 1.330369 -0.5053147 0.15008476 -1.1208035 0.32736605 -0.075082004
00000000: aaca 953e 40d2 443d 39fd f0be 3cc3 7ebe
00000010: 4094 32bd 7002 8dbd 6a77 35bf 6831 37be
00000020: 63de 2f3f 1db5 303e 242c 083f 7e0d 14bf
00000030: 110a c8be e02f f43e 8c3d 053e df8f 39bf
00000040: 80ae 11bc 4f3a b33e be9f 9bbf 599c 83be
00000050: 5b45 9e3e 4891 bb3f 2ad0 003f a51f 463f
00000060: 24a6 613f 8086 c13b 1290 373d 16ff ae3f
00000070: 18f5 0f3f 079d 633e 7a1f a63f 2cb9 fb3e
00000080: 1c59 293e 1b66 653e 7015 82be 76b7 bd3e
00000090: f909 74bf 309f dcbe 4f8b 353e cc9d 33be
000000a0: 1cf8 063e 20fb a2bc d9bb a53f 6125 b8be
000000b0: 2c85 b5be 78f8 74bf 46f2 8c3e 06b9 ddbd
000000c0: 920c 893f b5b6 11bf e760 a9be 95df 1bbf
000000d0: e06d bfbe edef 153f 7694 993f f8e7 013e
000000e0: 6a99 e9bc 5a61 d43e e4e3 e03e 14ad 96be
000000f0: 14f9 863f 6cec cabd ff64 fe3d 76a8 853f
00000100: e044 1fbe e34a 0ebe 8849 aa3f 4e5c 01bf
00000110: d2af 193e 7d76 8fbf 869c a73e 98c4 99bd

0.bias f4 [24]
-0.51332605 -0.15262511 -0.0060888175 1.4448154 -0.47296798 0.36528623 0.8968696 -0.0006905666
1.2216457 0.88368034 0.5918609 -0.20120934 0.7630018 -0.31205288 1.3067452 1.1200347
1.1836158 0.0119146835 0.95542336 -0.52544725 1.4401338 1.1306792 1.149586 1.2544811
00000000: 5669 03bf c249 1cbe b484 c7bb b6ef b83f
00000010: dc28 f2be cc06 bb3e 3f99 653f 2407 35ba
00000020: e35e 9c3f e038 623f 3284 173f d209 4ebe
00000030: 1654 433f 65c5 9fbe 6d43 a73f 4c5d 8f3f
00000040: b980 973f ce35 433c a096 743f b683 06bf
00000050: 4e56 b83f 19ba 903f a225 933f d692 a03f

2.weight f4 [24, 24]
-0.13536328 -0.04045923 0.14655523 1.0099031 0.18148345 0.15121825 0.32784677 0.19698943
0.91367817 0.75924814 0.8018257 -0.4562065 0.60318285 0.13327092 0.83318347 0.6968025
0.86783886 0.31200314 0.9801403 -0.08719419 0.7094988 0.9726603 1.0032191 0.7318868
0.011207491 0.009105369 0.1804584 0.11251544 -0.089130186 -0.04154508 0.14518192 -0.10808743
-0.21099764 0.033198956 -0.09941093 -0.20098455 0.108888626 -0.09180288 0.08609316 0.051412
-0.2433689 -0.19445108 -0.020794602 0.041486397 0.060134128 0.05159642 -0.22075096 0.1449676
-0.095112965 0.1621286 0.4567828 0.9217374 0.058287024 0.0626841 0.050582815 0.4653244
0.9898792 0.81335044 1.0131687 -0.19073121 0.0039717886 -0.105419956 0.7771109 0.045694496
0.95470965 0.49842188 0.9207612 0.069684476 0.86406225 0.8598814 0.70350975 -0.06816397
0.055758595 0.086461514 -0.17589538 -0.20591971 -0.1748636 -0.093604535 -0.17019239 -0.15282495
-0.17238241 -0.09639652 -0.18658678 0.08220926 -0.108897425 -0.028048709 0.05560893 -0.17887287
0.068895094 -0.02491346 0.06624637 0.086526275 -0.10014117 0.16156529 -0.089222476 -0.15648082
0.051970273 0.06272879 0.1659447 -0.037002683 0.20330963 0.15583766 -0.078785315 -0.04648815
0.0906204 -0.110760495 -0.022133917 0.15236035 0.0013035238 0.08958158 -0.101370126 0.18867216
0.08799371 -0.14379469 0.07733148 -0.017449677 0.07277283 -0.14777866 -0.11468172 -0.09917537
-0.10822154 -0.003811434 0.11801665 0.92956114 0.18247354 0.12903415 0.43602607 0.25482076
0.7993178 0.7863905 0.9984241 -0.050124012 0.16355649 -0.01822953 0.7843109 -0.15543781
1.056225 0.5078837 0.9637878 -0.13109025 0.8110441 1.0472269 0.860709 -0.052903716
-0.021194398 -0.05960962 0.18863018 0.9452532 0.10802156 0.6639967 0.8712076 -0.6054335
0.2190573 0.034388438 -0.3391709 -0.53448653 1.0718513 0.17105538 0.18002126 1.286706
0.34667107 0.31862754 0.08059393 -0.04548967 0.14005247 0.08254422 0.24745537 1.0661848
0.1766822 0.043440297 0.13240325 0.15980831 0.043460324 -0.17500742 0.027812243 0.11322409
0.031161845 -0.17988369 0.06349817 0.05925581 0.13117972 0.0664562 -0.03877966 -0.15015396
-0.024023369 0.007642299 0.0016744882 0.07316747 -0.011514589 -0.09483301 -0.151797 -0.09209277
-0.1515883 -0.022313774 0.33919272 0.8036303 -0.04528323 -0.00041672305 -0.102533594 0.7436912
0.9194055 0.97076416 0.90729994 0.0034683708 -0.12166653 -0.07987436 0.8188278 -0.62692696
0.77790314 0.36399397 0.9126348 -0.14651473 0.855824 0.9028554 1.0133947 -0.36294562
0.025046155 -0.11742354 0.1144793 0.120400906 -0.11002602 0.013363183 0.06869334 -0.04613681
-0.075180575 0.17488876 -0.015333116 -0.06629729 -0.007766545 0.048110187 0.20200261 -0.1975764
-0.14110383 -0.119348325 -0.13882999 0.0054303557 -0.016535759 0.035060987 -0.13500775 -0.19995517
-0.16923344 -0.1872591 -0.085150555 0.06098465 0.16440499 -0.1718828 0.10731191 0.09411056
0.017680584 -0.14902459 0.009779875 -0.104018204 -0.15987317 -0.18332618 -0.17166865 -0.11817284
00000000: ac9c 0abe 94b8 25bd 9312 163e 8144 813f
00000010: ccd6 393e f5d8 1a3e 88db a73e 99b7 493e
00000020: d0e6 693f 165e 423f 7344 4d3f e693 e9be
00000030: 316a 1a3f 2c78 083e 834b 553f a661 323f
00000040: b02a 5e3f e0be 9f3e 7aea 7a3f de92 b2bd
00000050: b7a1 353f 4400 793f 7c69 803f ef5c 3b3f
00000060: a09f 373c b02e 153c 16ca 383e 7f6e e63d
00000070: e389 b6bd 2c2b 2abd 92aa 143e f15c ddbd
00000080: c40f 58be a1fb 073d f597 cbbd e5ce 4dbe
00000090: 0001 df3d 2603 bcbd 9c51 b03d 6495 523d
000000a0: b235 79be 2f1e 47be 7159 aabc a4ed 293d
000000b0: 344f 763d c556 533d 8a0c 62be 6372 143e
000000c0: 96ca c2bd 0a05 263e 6fdf e93e fbf6 6b3f
000000d0: 60be 6e3d 8560 803d ed2f 4f3d 003f ee3e
000000e0: b968 7d3f bc37 503f 83af 813f 0b4f 43be
000000f0: c725 823b 6be6 d7bd bdf0 463f 272a 3b3d
00000100: da67 743f 2731 ff3e 02b7 6b3f bcb6 8e3d
00000110: 2f33 5d3f 3021 5c3f 3719 343f 8d99 8bbd
00000120: 2063 643d bc12 b13d eb1d 34be 9edc 52be
00000130: 720f 33be bcb3 bfbd ea46 2ebe 257e 1cbe
00000140: 0485 30be 8a6b c5bd 9b10 3fbe 545d a83d
00000150: 9d05 dfbd 68c6 e5bc 30c6 633d 732a 37be
00000160: df18 8d3d 5017 ccbc 2dac 873d b034 b13d
00000170: d016 cdbd 5f71 253e 46ba b6bd 823c 20be
00000180: c8de 543d f477 803d 68ed 293e 2090 17bd
00000190: 6630 503e e893 1f3e 325a a1bd 5c6a 3ebd
000001a0: 3097 b93d 66d6 e2bd 3052 b5bc 5a04 1c3e
000001b0: 00db aa3a 8c76 b73d 249b cfbd 4633 413e
000001c0: 0c36 b43d ea3e 13be f85f 9e3d a0f2 8ebc
000001d0: ec09 953d 4a53 17be 40de eabd 751c cbbd
000001e0: 41a3 ddbd 40c9 79bb b7b2 f13d b8f7 6d3f
000001f0: 58da 3a3e 8721 043e cf3e df3e de77 823e
00000200: 17a0 4c3f e350 493f b998 7f3f d64e 4dbd
00000210: 5a7b 273e 1856 95bc 99c8 483f 172b 1fbe
00000220: 6132 873f ab04 023f ccba 763f 863c 06be
00000230: 96a0 4f3f 880b 863f 6d57 5c3f 91b1 58bd
00000240: e09f adbc 3829 74bd 4528 413e 1dfc 713f
00000250: 683a dd3d b0fb 293f 7607 5f3f b1fd 1abf
00000260: 8f50 603e e4da 0c3d cfa7 adbe 1cd4 08bf
00000270: 6c32 893f 2429 2f3e 7e57 383e c8b2 a43f
00000280: df7e b13e 2623 a33e 6e0e a53d 6053 3abd
00000290: ea69 0f3e f20c a93d f164 7d3e be78 883f
000002a0: 2eec 343e 74ee 313d b894 073e caa4 233e
000002b0: 7403 323d 2535 33be 80d6 e33c 08e2 e73d
000002c0: 2047 ff3c 6e33 38be 540b 823d 38b6 723d
000002d0: fa53 063e 301a 883d 6cd7 1ebd f6c1 19be
000002e0: a8cc c4bc 406c fa3b 807a db3a d4d8 953d
000002f0: b0a7 3cbc cf37 c2bd ac70 1bbe 229b bcbd
00000300: f739 1bbe 60cb b6bc abaa ad3e b7ba 4d3f
00000310: e87a 39bd 9f7b dab9 22fd d1bd 8c62 3e3f
00000320: 295e 6b3f 0084 783f cf44 683f 9b4d 633b
00000330: 4d2c f9bd 2b95 a3bd b39e 513f 497e 20bf
00000340: a924 473f 6b5d ba3e 6fa2 693f f507 16be
00000350: 4817 5b3f 8821 673f ebb6 813f 02d4 b9be
00000360: 982d cd3c c17b f0bd 2074 ea3d c094 f63d
00000370: 5255 e1bd 40f1 5a3c 18af 8c3d f4f9 3cbd
00000380: 46f8 99bd 0a16 333e c037 7bbc e0c6 87bd
00000390: 807e febb 300f 453d c6d9 4e3e 7851 4abe
000003a0: 867d 10be e56c f4bd 7329 0ebe 20f1 b13b
000003b0: 0076 87bc 1c9c 0f3d 793f 0abe 0cc1 4cbe
000003c0: 884b 2dbe d9c0 3fbe 6a63 aebd 0acb 793d
000003d0: c859 283e 0b02 30be 59c6 db3d 0abd c03d
000003e0: dfd6 903c e799 18be c53b 203c 7f07 d5bd
000003f0: cbb5 23be dcb9 3bbe e8c9 2fbe 9a04 f2bd

2.bias f4 [24]
0.89239764 -0.1372787 0.7126345 0.13232332 -0.16373016 0.7003076 0.7548911 -0.07741663
0.4709644 -0.10117334 -0.026208512 0.8560852 -0.05340363 0.6138052 0.9118257 0.5687725
0.9567542 0.75400305 0.026130274 -0.12245503 0.37587744 -0.13859077 0.77205294 -0.1682414
00000000: 2c74 643f ca92 0cbe 376f 363f c47f 073e
00000010: e1a8 27be 5c47 333f 8b40 413f 9c8c 9ebd
00000020: 3f22 f13e f833 cfbd 3cb3 d6bc 6628 5b3f
00000030: c4bd 5abd 5622 1d3f 696d 693f 139b 113f
00000040: d8ed 743f 5806 413f 280f d63c b4c9 fabd
00000050: 0273 c03e bdea 0dbe 43a5 453f 7947 2cbe

4.weight f4 [3, 24]
0.86607355 -0.054104745 0.4203039 -0.08587701 0.016411453 0.49649566 1.0599133 0.20308182
0.3060355 -0.012072623 -0.09164138 0.7182646 0.028961137 0.65612864 0.58526385 0.32604626
0.7335663 0.50355595 0.121424615 0.16434598 0.9632204 0.1793351 0.26432243 0.16753194
0.80158836 0.06489838 1.0911767 -0.19148432 0.19245788 1.0622044 -0.96839535 0.19871357
1.1941316 0.0031479 -0.016757466 0.85875946 -0.13120344 -1.2365391 0.9703302 0.95484084
0.8608069 0.8797752 0.13659492 -0.18679225 -1.3430033 0.11063036 1.1604686 0.092063904
0.556501 0.0037439994 0.43061978 -0.16974913 0.19185016 0.3994661 1.3358788 0.16512868
0.19665979 -0.18397662 0.10158864 0.57884854 0.041409716 1.7143713 0.29778856 0.014745291
0.3780182 0.11318135 0.20181835 -0.019151598 1.6171772 0.0021553189 0.15038285 0.03631465
00000000: ffb6 5d3f f09c 5dbd 1332 d73e 49e0 afbd
00000010: 5071 863c ae34 fe3e 3dab 873f aef4 4f3e
00000020: afb0 9c3e 40cc 45bc 7aae bbbd 30e0 373f
00000030: e83f ed3c 0cf8 273f dad3 153f 89ef a63e
00000040: 00cb 3b3f 0be9 003f 78ad f83d 504a 283e
00000050: 9d95 763f 9fa3 373e 4555 873e 7e8d 2b3e
00000060: e534 4d3f 71e9 843d aeab 8b3f 7714 44be
00000070: ae13 453e 50f6 873f c2e8 77bf 927b 4b3e
00000080: 4ed9 983f 004d 4e3b f446 89bc a9d7 5b3f
00000090: 325a 06be ea46 9ebf 8f67 783f 7370 743f
000000a0: d75d 5c3f f338 613f 8adf 0b3e 7846 3fbe
000000b0: 88e7 abbf 2c92 e23d 3c8a 943f 008c bc3d
000000c0: d976 0e3f e35d 753b 327a dc3e b7d2 2dbe
000000d0: 5e74 443e d286 cc3e 14fe aa3f 7e17 293e
000000e0: 2f61 493e 5e64 3cbe b40d d03d 6b2f 143f
000000f0: 3c9d 293d 8570 db3f be77 983e 3c96 713c
00000100: 9a8b c13e a0cb e73d 78a9 4e3e d0e3 9cbc
00000110: aaff ce3f 4040 0d3b f6fd 193e acbe 143d

4.bias f4 [3]
0.45153835 0.23210259 0.5657303
00000000: 0930 e73e 4dac 6d3e b3d3 103f
