models/local_dqn_episode_45.pth (torch, 6129 bytes, 6 tensors)

0.weight f4 [24, 3]
00000000: aaca 953e 40d2 443d 39fd f0be 3cc3 7ebe
00000010: 4094 32bd 7002 8dbd ab1f 53bf 6831 37be
00000020: f14d 343f 06c8 213c 242c 083f aea1 0fbf
00000030: 110a c8be e02f f43e 8c3d 053e 4ae6 40bf
00000040: 80ae 11bc 9be1 be3e f439 9fbf 599c 83be
00000050: 88b2 b53e 6c57 b03f 2ad0 003f d22c 3e3f
00000060: 816d 1b3f 8086 c13b c506 53bd 1871 8c3f
00000070: 18f5 0f3f 0267 023e 7a8c 823f 2cb9 fb3e
00000080: 8909 9e3d 34d1 083f 7015 82be 9f86 d13e
00000090: b145 7bbf 309f dcbe b37b 753e cc9d 33be
000000a0: 1cf8 063e 20fb a2bc 26e7 833f 6125 b8be
000000b0: d652 cbbe cb2a 0bbf 46f2 8c3e 5c55 68be
000000c0: 4b48 4e3f b5b6 11bf c0d0 afbe 8b8f 1cbf
000000d0: e06d bfbe f74d 403f 988d 6c3f f8e7 013e
000000e0: 0991 f9bd 5a61 d43e e4e3 e03e 14ad 96be
000000f0: 4813 483f 6cec cabd d93e bf3c c023 473f
00000100: e044 1fbe 3378 72be 96f8 873f 4e5c 01bf
00000110: 65ae 5b3d a881 36bf 869c a73e aec0 5dbe
0.29256183 0.048052073 -0.47068194 -0.24879164 -0.043598413 -0.068852305 -0.82470196 -0.1788994
0.7043143 0.009874349 0.53192353 -0.5610608 -0.3907018 0.47692776 0.1301176 -0.75351393
-0.008891702 0.37281498 -1.2439561 -0.2570522 0.3548777 1.3776679 0.50317633 0.7428714
0.60713965 0.005905926 -0.051520128 1.0972013 0.5623336 0.12734607 1.019912 0.49164712
0.077166624 0.5344422 -0.2540698 0.4092302 -0.98153216 -0.430902 0.23972969 -0.17540663
0.13180584 -0.019895136 1.0304916 -0.35966018 -0.39711636 -0.5436217 0.2752859 -0.22688812
0.8057906 -0.56919414 -0.3433895 -0.6115653 -0.37388515 0.75118965 0.92403555 0.12686145
-0.121858664 0.41480523 0.43923867 -0.29428923 0.7815442 -0.09908375 0.023345398 0.77788925
-0.15553617 -0.23678665 1.0622737 -0.5053147 0.053633112 -0.7129159 0.32736605 -0.21655533

0.bias f4 [24]
00000000: 5669 03bf c249 1cbe 5b68 4cbd ff74 513f
00000010: dc28 f2be c7bb 22bd 4ec5 773e 5cc4 afbe
00000020: 9d7d 303f 2610 b73e 769f 023e b06e 89bd
00000030: e6fa 8a3d 65c5 9fbe 0902 483f 96b3 5f3f
00000040: b499 293f ae3a 72bc 0627 e33e b683 06bf
00000050: ba41 693f a054 153f ef3f 1e3f f15c 7f3f
-0.51332605 -0.15262511 -0.04990421 0.81819147 -0.47296798 -0.03972986 0.2419636 -0.34329498
0.6894167 0.35754508 0.12756142 -0.06710565 0.06786136 -0.31205288 0.78128105 0.873834
0.6625016 -0.014784498 0.4436571 -0.52544725 0.91115916 0.5833225 0.61816305 0.9975119

2.weight f4 [24, 24]
00000000: ac9c 0abe 94b8 25bd 8796 ba3e 1a62 a13e
00000010: ccd6 393e 9328 973d 8821 3cbe 3560 093c
00000020: 84dd b73e 477e a23e 8074 da3e 3b63 31bf
00000030: 073c 253e 2c78 083e 008a 8e3e eb49 bf3b
00000040: 5312 9c3e 50eb 003f 5ea7 f83e de92 b2bd
00000050: 7127 213e 8135 dc3e 6881 013f 6b41 243d
00000060: a09f 373c b02e 153c 16ca 383e 7f6e e63d
00000070: e389 b6bd 2c2b 2abd 92aa 143e f15c ddbd
00000080: c40f 58be a1fb 073d f597 cbbd e5ce 4dbe
00000090: 0001 df3d 2603 bcbd 9c51 b03d 6495 523d
000000a0: b235 79be 2f1e 47be 7159 aabc a4ed 293d
000000b0: 344f 763d c556 533d 8a0c 62be 6372 143e
000000c0: 96ca c2bd 0a05 263e a9fb 063f 8d93 c43e
000000d0: 60be 6e3d ce66 07be a1bd 6cbe 6bc7 683e
000000e0: 1910 0a3f d7e7 d13e bf82 213f 3b47 e6be
000000f0: c632 89be 6be6 d7bd 3f58 9e3e 8856 9ebe
00000100: eab1 f63e 89fb 103f 1247 f93e bcb6 8e3d
00000110: d1ad d53e 0bbb ce3e b7ec 8d3e c915 d0be
00000120: 2063 643d bc12 b13d eb1d 34be 9edc 52be
00000130: 720f 33be bcb3 bfbd ea46 2ebe 257e 1cbe
00000140: 0485 30be 8a6b c5bd 9b10 3fbe 545d a83d
00000150: 9d05 dfbd 68c6 e5bc 30c6 633d 732a 37be
00000160: df18 8d3d 5017 ccbc 2dac 873d b034 b13d
00000170: d016 cdbd 5f71 253e 46ba b6bd 823c 20be
00000180: c8de 543d f477 803d 3266 093e 2090 17bd
00000190: 6630 503e 7419 fe3d 9368 e2bd 9043 a0bd
000001a0: a811 713d 61f2 11be 8ec5 5cbd 5afa f63d
000001b0: b38b f9bc 8c76 b73d 249b cfbd 17ac 203e
000001c0: 0c36 b43d 20c6 33be a0a3 3a3d a0f2 8ebc
000001d0: 13f7 273d 44da 37be 4ff6 15be 6d15 06be
000001e0: 41a3 ddbd 40c9 79bb 0c8a 6d3e 5c0d b53e
000001f0: 58da 3a3e 8b92 f5bc be5d 963d 4d01 703c
00000200: f17e a83e 6c87 bf3e 8cee 1c3f 906a a3be
00000210: a64f 28be 1856 95bc d694 993e 5921 1ebf
00000220: 76ea 103f 41ee 1c3f 1f89 043f 863c 06be
00000230: 1b7a b03e 1211 133f 8b6d d73e 981f 04bf
00000240: e09f adbc 3829 74bd cdce d73e e32a 263f
00000250: 683a dd3d ec43 243f 9598 883e b6ea 97be
00000260: 92bf 303e 42fd 153e d5af 0ebe f64a b5be
00000270: 2de6 083f 2429 2f3e 7dc1 403e 0bc3 0a3f
00000280: 3edf ad3e 4021 0a3f 7481 1b3e 6053 3abd
00000290: a4dc bf3d 51af ad3d ca1b 963e f5a6 913e
000002a0: 2eec 343e 74ee 313d b894 073e caa4 233e
000002b0: 7403 323d 2535 33be 80d6 e33c 08e2 e73d
000002c0: 2047 ff3c 6e33 38be 540b 823d 38b6 723d
000002d0: fa53 063e 301a 883d 6cd7 1ebd f6c1 19be
000002e0: a8cc c4bc 406c fa3b 807a db3a d4d8 953d
000002f0: b0a7 3cbc cf37 c2bd ac70 1bbe 229b bcbd
00000300: f739 1bbe 60cb b6bc 2f16 033f 27f0 a23e
00000310: e87a 39bd cf72 73bd 4d46 d0bd 8428 053f
00000320: 134a 003f 2246 163f 4878 093f 6a4b 71be
00000330: 22a5 14be 2b95 a3bd fcc5 c03e ff88 45bf
00000340: 489f a93e ebcd 083f f30b 003f f507 16be
00000350: d26b e23e c230 f23e 09b9 1c3f b5c6 e5be
00000360: 982d cd3c c17b f0bd 2074 ea3d c094 f63d
00000370: 5255 e1bd 40f1 5a3c 18af 8c3d f4f9 3cbd
00000380: 46f8 99bd 0a16 333e c037 7bbc e0c6 87bd
00000390: 807e febb 300f 453d c6d9 4e3e 7851 4abe
000003a0: 867d 10be e56c f4bd 7329 0ebe 20f1 b13b
000003b0: 0076 87bc 1c9c 0f3d 793f 0abe 0cc1 4cbe
000003c0: 884b 2dbe d9c0 3fbe 6a63 aebd 0acb 793d
000003d0: c859 283e 0b02 30be 59c6 db3d 0abd c03d
000003e0: dfd6 903c e799 18be c53b 203c 7f07 d5bd
000003f0: cbb5 23be dcb9 3bbe e8c9 2fbe 9a04 f2bd
-0.13536328 -0.04045923 0.36442968 0.31520158 0.18148345 0.07380786 -0.18372166 0.008384754
0.3591119 0.31736967 0.42667007 -0.6929204 0.1613618 0.13327092 0.2783966 0.005837669
0.3048273 0.5035906 0.4856519 -0.08719419 0.15737702 0.4300957 0.50588083 0.04010145
0.011207491 0.009105369 0.1804584 0.11251544 -0.089130186 -0.04154508 0.14518192 -0.10808743
-0.21099764 0.033198956 -0.09941093 -0.20098455 0.108888626 -0.09180288 0.08609316 0.051412
-0.2433689 -0.19445108 -0.020794602 0.041486397 0.060134128 0.05159642 -0.22075096 0.1449676
-0.095112965 0.1621286 0.5272775 0.38393822 0.058287024 -0.1322281 -0.23119213 0.22732322
0.53930813 0.40997192 0.6309013 -0.4497622 -0.2679655 -0.105419956 0.309267 -0.30925393
0.48182613 0.5663381 0.48687035 0.069684476 0.41734174 0.40377077 0.27719662 -0.4064162
0.055758595 0.086461514 -0.17589538 -0.20591971 -0.1748636 -0.093604535 -0.17019239 -0.15282495
-0.17238241 -0.09639652 -0.18658678 0.08220926 -0.108897425 -0.028048709 0.05560893 -0.17887287
0.068895094 -0.02491346 0.06624637 0.086526275 -0.10014117 0.16156529 -0.089222476 -0.15648082
0.051970273 0.06272879 0.1341789 -0.037002683 0.20330963 0.124071985 -0.11055102 -0.078253865
0.05885473 -0.14252616 -0.05389934 0.120594695 -0.030462122 0.08958158 -0.101370126 0.15690647
0.08799371 -0.17556047 0.0455662 -0.017449677 0.041007113 -0.17954355 -0.1464474 -0.13094111
-0.10822154 -0.003811434 0.23197192 0.35361755 0.18247354 -0.029977104 0.07342099 0.014648748
0.3290935 0.37408006 0.61301494 -0.31917238 -0.16436633 -0.01822953 0.29996365 -0.61769634
0.5660776 0.61301047 0.5177173 -0.13109025 0.3446816 0.5744792 0.42075762 -0.5161071
-0.021194398 -0.05960962 0.42149964 0.6490919 0.10802156 0.6416614 0.2667891 -0.29671258
0.17260578 0.14647391 -0.13934262 -0.35408753 0.5347622 0.17105538 0.1882381 0.5420386
0.33959383 0.53956985 0.15186101 -0.04548967 0.09368256 0.084807046 0.29318076 0.2844769
0.1766822 0.043440297 0.13240325 0.15980831 0.043460324 -0.17500742 0.027812243 0.11322409
0.031161845 -0.17988369 0.06349817 0.05925581 0.13117972 0.0664562 -0.03877966 -0.15015396
-0.024023369 0.007642299 0.0016744882 0.07316747 -0.011514589 -0.09483301 -0.151797 -0.09209277
-0.1515883 -0.022313774 0.51205724 0.31823847 -0.04528323 -0.059435662 -0.10169659 0.52014947
0.5011303 0.58700764 0.5369916 -0.23563924 -0.14516118 -0.07987436 0.3765105 -0.77162164
0.33129334 0.53439206 0.50018233 -0.14651473 0.44222885 0.47302824 0.6121984 -0.44878164
0.025046155 -0.11742354 0.1144793 0.120400906 -0.11002602 0.013363183 0.06869334 -0.04613681
-0.075180575 0.17488876 -0.015333116 -0.06629729 -0.007766545 0.048110187 0.20200261 -0.1975764
-0.14110383 -0.119348325 -0.13882999 0.0054303557 -0.016535759 0.035060987 -0.13500775 -0.19995517
-0.16923344 -0.1872591 -0.085150555 0.06098465 0.16440499 -0.1718828 0.10731191 0.09411056
0.017680584 -0.14902459 0.009779875 -0.104018204 -0.15987317 -0.18332618 -0.17166865 -0.11817284

2.bias f4 [24]
00000000: 113c 783e ca92 0cbe 11b3 693e c47f 073e
00000010: 1130 48be 1739 3a3e 20fd f13e 9c8c 9ebd
00000020: 964e 313d f833 cfbd 3cb3 d6bc cb7d 713e
00000030: c4bd 5abd e01d f53a c0fb b83e 6225 153e
00000040: b395 b13e 90ea 773e 280f d63c 13ec 1dbe
00000050: 9df5 263e bdea 0dbe 2be8 b93e 7947 2cbe
0.24241664 -0.1372787 0.22822215 0.13232332 -0.19549586 0.1818584 0.47263432 -0.07741663
0.043287836 -0.10117334 -0.026208512 0.23583142 -0.05340363 0.001870092 0.3612957 0.14565042
0.34684524 0.24210572 0.026130274 -0.15422086 0.16304632 -0.13859077 0.36309943 -0.1682414

4.weight f4 [3, 24]
00000000: 818e cd3e f09c 5dbd b192 2d3d 49e0 afbd
00000010: 5071 863c 1eef 033e 4bb8 e03e aef4 4f3e
00000020: db4b c03b 40cc 45bc 7aae bbbd 3fa3 8d3e
00000030: e83f ed3c 9709 af3e 6865 2f3e 86ad f1bc
00000040: b6ab 8d3e e22b 8c3d 78ad f83d 504a 283e
00000050: 1c6b ad3e 9fa3 373e e81a 04bd 7e8d 2b3e
00000060: 49de dc3e 71e9 843d d471 463f 7714 44be
00000070: ae13 453e 7ae8 3b3f fbc8 9abf 927b 4b3e
00000080: 3906 6d3f 004d 4e3b f446 89bc e50d 003f
00000090: 325a 06be 15c2 4fbf 95bc 203f f9c3 2a3f
000000a0: 885c fc3e c868 0a3f 8adf 0b3e 1fc0 1ebe
000000b0: d436 b0bf 2c92 e23d 3d13 673f 008c bc3d
000000c0: 51bb 193e e35d 753b 1752 a43d b7d2 2dbe
000000d0: 94ef 233e 36fb a63d 478c c13e 7e17 293e
000000e0: 3d8c b9bd 5e64 3cbe b40d d03d 0181 803e
000000f0: 3c9d 293d cfc7 043f 298e 8b3d bdaf 4abe
00000100: bbd4 d53d ee6c e8bc 78a9 4e3e d0e3 9cbc
00000110: faaa 1b3f 4040 0d3b a85a 10be acbe 143d
0.40147784 -0.054104745 0.042376224 -0.08587701 0.016411453 0.12884185 0.43890604 0.20308182
0.0058684177 -0.012072623 -0.09164138 0.2766361 0.028961137 0.34187004 0.17128527 -0.029501688
0.27670068 0.068443075 0.121424615 0.16434598 0.3387078 0.1793351 -0.032252222 0.16753194
0.4313834 0.06489838 0.7751744 -0.19148432 0.19245788 0.73401606 -1.2092584 0.19871357
0.9258762 0.0031479 -0.016757466 0.500212 -0.13120344 -0.8115552 0.62787753 0.6670528
0.49289346 0.54066133 0.13659492 -0.15502976 -1.3766732 0.11063036 0.9026373 0.092063904
0.15012862 0.0037439994 0.0802347 -0.16974913 0.1600936 0.081533834 0.37802336 0.16512868
-0.090599515 -0.18397662 0.10158864 0.25098422 0.041409716 0.51867384 0.06814224 -0.19793601
0.10440966 -0.028372254 0.20181835 -0.019151598 0.60807765 0.0021553189 -0.14097083 0.03631465

4.bias f4 [3]
00000000: e18c 48be e073 3abe a577 18be
-0.19584991 -0.18208265 -0.14889391
