models/local_dqn_episode_35.pth (torch, 6129 bytes, 6 tensors)

0.weight f4 [24, 3]
000000 aa ca 95 3e 40 d2 44 3d 39 fd f0 be 3c c3 7e be
       0.29256183 0.048052073 -0.47068194 -0.24879164
000010 40 94 32 bd 70 02 8d bd ab 1f 53 bf 68 31 37 be
       -0.043598413 -0.068852305 -0.82470196 -0.1788994
000020 b7 a5 53 3f f9 5f a1 bd 24 2c 08 3f 3d 05 28 bf
       0.82674736 -0.078796335 0.53192353 -0.65632993
000030 11 0a c8 be e0 2f f4 3e 8c 3d 05 3e 4a e6 40 bf
       -0.3907018 0.47692776 0.1301176 -0.75351393
000040 80 ae 11 bc 72 6f a2 3e f4 39 9f bf 59 9c 83 be
       -0.008891702 0.3172565 -1.2439561 -0.2570522
000050 0c e1 ac 3e 55 28 b2 3f 2a d0 00 3f 10 01 38 3f
       0.33765447 1.3918558 0.50317633 0.7187662
000060 f2 1e 16 3f 80 86 c1 3b 76 06 89 bd 3c 81 89 3f
       0.5864097 0.005905926 -0.066906855 1.0742564
000070 18 f5 0f 3f cb 96 e5 3d 74 00 81 3f 2c b9 fb 3e
       0.5623336 0.11210402 1.0078263 0.49164712
000080 30 e3 69 3d f1 2c 11 3f 70 15 82 be 4e 58 dd 3e
       0.05710143 0.567092 -0.2540698 0.43231434
000090 b1 45 7b bf 30 9f dc be 9c 54 46 3e cc 9d 33 be
       -0.98153216 -0.430902 0.19368213 -0.17540663
0000a0 1c f8 06 3e 20 fb a2 bc bd 94 80 3f 61 25 b8 be
       0.13180584 -0.019895136 1.0045391 -0.35966018
0000b0 44 5f ec be 2a 5d 0d bf 46 f2 8c 3e c0 79 45 be
       -0.46166432 -0.5522028 0.2752859 -0.19284725
0000c0 88 92 47 3f b5 b6 11 bf e3 8b d6 be f1 71 2e bf
       0.77957964 -0.56919414 -0.419036 -0.6814261
0000d0 e0 6d bf be a0 32 3e 3f 25 e7 67 3f f8 e7 01 3e
       -0.37388515 0.74296 0.90587074 0.12686145
0000e0 75 6f 0e be 5a 61 d4 3e e4 e3 e0 3e 14 ad 96 be
       -0.13909705 0.41480523 0.43923867 -0.29428923
0000f0 bd 34 43 3f 6c ec ca bd 16 cc 22 3c ef 75 40 3f
       0.7625235 -0.09908375 0.009936353 0.7517995
000100 e0 44 1f be 2b b2 7f be e3 ef 84 3f 4e 5c 01 bf
       -0.15553617 -0.2497031 1.0385708 -0.5053147
000110 8f 8e 21 3d b4 38 38 bf 86 9c a7 3e 4b 88 3a be
       0.039442595 -0.7196152 0.32736605 -0.18216054

0.bias f4 [24]
000000 56 69 03 bf c2 49 1c be bf 9e d6 bc 3c 7b 79 3f
       -0.51332605 -0.15262511 -0.026198743 0.97453666
000010 dc 28 f2 be 78 91 15 bd b3 4c b6 3e fb 27 a4 be
       -0.47296798 -0.036515683 0.35605392 -0.32061753
000020 2a da 42 3f 36 8d dd 3e 2c 2e 30 3e 11 39 08 bd
       0.7611414 0.43271798 0.17205113 -0.033257548
000030 59 21 44 3e 65 c5 9f be 7b 91 5a 3f 41 e1 66 3f
       0.19153346 -0.31205288 0.85378236 0.9018746
000040 75 11 3b 3f 96 f2 75 3c 47 27 02 3f b6 83 06 bf
       0.7307351 0.01501145 0.5084118 -0.52544725
000050 0c 61 7b 3f 77 14 2b 3f eb 77 32 3f 17 af 82 3f
       0.98194957 0.668281 0.6971423 1.0209683

2.weight f4 [24, 24]
000000 ac 9c 0a be 94 b8 25 bd 1b 88 e1 3e a2 92 00 3f
       -0.13536328 -0.04045923 0.44049153 0.50223744
000010 cc d6 39 3e 62 39 30 3e bb 99 56 3d 38 4b 3b bd
       0.18148345 0.1720939 0.052392703 -0.04572603
000020 f7 65 dd 3e 85 f3 a4 3e 3a 04 cb 3e 90 fc 3f bf
       0.43241856 0.3221704 0.39651662 -0.74994755
000030 cd 35 a4 3e 2c 78 08 3e 19 91 ab 3e ae 39 88 3e
       0.32072297 0.13327092 0.33509138 0.26606506
000040 67 78 bc 3e d1 97 18 3f a2 2e 03 3f de 92 b2 bd
       0.3681061 0.59606653 0.5124303 -0.08719419
000050 74 23 6b 3e 10 66 f8 3e ab 5d 0a 3f 10 cf a0 3e
       0.22962743 0.48515368 0.54049176 0.31407976
000060 a0 9f 37 3c b0 2e 15 3c 16 ca 38 3e 7f 6e e6 3d
       0.011207491 0.009105369 0.1804584 0.11251544
000070 e3 89 b6 bd 2c 2b 2a bd 92 aa 14 3e f1 5c dd bd
       -0.089130186 -0.04154508 0.14518192 -0.10808743
000080 c4 0f 58 be a1 fb 07 3d f5 97 cb bd e5 ce 4d be
       -0.21099764 0.033198956 -0.09941093 -0.20098455
000090 00 01 df 3d 26 03 bc bd 9c 51 b0 3d 64 95 52 3d
       0.108888626 -0.09180288 0.08609316 0.051412
0000a0 b2 35 79 be 2f 1e 47 be 71 59 aa bc a4 ed 29 3d
       -0.2433689 -0.19445108 -0.020794602 0.041486397
0000b0 34 4f 76 3d c5 56 53 3d 8a 0c 62 be 63 72 14 3e
       0.060134128 0.05159642 -0.22075096 0.1449676
0000c0 96 ca c2 bd 0a 05 26 3e 8e 1d 3a 3f 2b fd e1 3e
       -0.095112965 0.1621286 0.72701347 0.44138464
0000d0 60 be 6e 3d 07 c5 a2 3d 7a fd 0a bd 23 ca 5c 3e
       0.058287024 0.07947736 -0.03393314 0.21561484
0000e0 48 d1 0d 3f 0c 17 d3 3e ac eb 20 3f 21 65 ec be
       0.5539746 0.4122852 0.62859607 -0.46170905
0000f0 91 32 c7 bd 6b e6 d7 bd fe 7d a4 3e 59 35 74 be
       -0.09726442 -0.105419956 0.32127374 -0.23848476
000100 08 ef fd 3e 16 af 41 3f 32 ba fc 3e bc b6 8e 3d
       0.4959643 0.75657785 0.49360806 0.069684476
000110 1e ab dc 3e 49 c7 d4 3e cb 88 91 3e b9 9d a1 be
       0.43099302 0.41558293 0.28424677 -0.31565645
000120 20 63 64 3d bc 12 b1 3d eb 1d 34 be 9e dc 52 be
       0.055758595 0.086461514 -0.17589538 -0.20591971
000130 72 0f 33 be bc b3 bf bd ea 46 2e be 25 7e 1c be
       -0.1748636 -0.093604535 -0.17019239 -0.15282495
000140 04 85 30 be 8a 6b c5 bd 9b 10 3f be 54 5d a8 3d
       -0.17238241 -0.09639652 -0.18658678 0.08220926
000150 9d 05 df bd 68 c6 e5 bc 30 c6 63 3d 73 2a 37 be
       -0.108897425 -0.028048709 0.05560893 -0.17887287
000160 df 18 8d 3d 50 17 cc bc 2d ac 87 3d b0 34 b1 3d
       0.068895094 -0.02491346 0.06624637 0.086526275
000170 d0 16 cd bd 5f 71 25 3e 46 ba b6 bd 82 3c 20 be
       -0.10014117 0.16156529 -0.089222476 -0.15648082
000180 c8 de 54 3d f4 77 80 3d 68 ed 29 3e 20 90 17 bd
       0.051970273 0.06272879 0.1659447 -0.037002683
000190 66 30 50 3e e8 93 1f 3e 32 5a a1 bd 5c 6a 3e bd
       0.20330963 0.15583766 -0.078785315 -0.04648815
0001a0 30 97 b9 3d 66 d6 e2 bd 30 52 b5 bc 5a 04 1c 3e
       0.0906204 -0.110760495 -0.022133917 0.15236035
0001b0 00 db aa 3a 8c 76 b7 3d 24 9b cf bd 46 33 41 3e
       0.0013035238 0.08958158 -0.101370126 0.18867216
0001c0 0c 36 b4 3d ea 3e 13 be f8 5f 9e 3d a0 f2 8e bc
       0.08799371 -0.14379469 0.07733148 -0.017449677
0001d0 ec 09 95 3d 4a 53 17 be 40 de ea bd 75 1c cb bd
       0.07277283 -0.14777866 -0.11468172 -0.09917537
0001e0 41 a3 dd bd 40 c9 79 bb b9 65 d0 3e 0f 8a df 3e
       -0.10822154 -0.003811434 0.40702608 0.43660018
0001f0 58 da 3a 3e 7e ef 22 3e 98 bb 9a 3e 0c 89 3a bb
       0.18247354 0.15911672 0.30221248 -0.0028463034
000200 d9 dd b3 3e 1d 95 c0 3e 47 59 1b 3f e1 c2 ac be
       0.35130194 0.37613764 0.606831 -0.3374243
000210 3e f9 74 3c 18 56 95 bc 21 b0 a2 3e e8 9d f7 be
       0.014952002 -0.01822953 0.31775 -0.4836266
000220 6b 30 16 3f 63 b4 48 3f 8b d3 06 3f 86 3c 06 be
       0.5866763 0.7840025 0.5266654 -0.13109025
000230 76 42 bb 3e 97 80 17 3f 2a 94 dc 3e 88 e0 b3 be
       0.36574143 0.5918059 0.4308179 -0.3513224
000240 e0 9f ad bc 38 29 74 bd 41 d0 9d 3e d6 26 3c 3f
       -0.021194398 -0.05960962 0.30822948 0.7349676
000250 68 3a dd 3d b3 7c 0a 3f 2b 03 ca 3e 86 dc 9d be
       0.10802156 0.54096526 0.39455542 -0.3083231
000260 84 ba 54 3e 3e 60 19 3e b7 b7 1d be 18 62 b9 be
       0.20774275 0.1497812 -0.15402113 -0.36207652
000270 a4 9b 19 3f 24 29 2f 3e 39 23 58 3e 4f 7e 41 3f
       0.60003114 0.17105538 0.21107186 0.75583357
000280 23 85 ba 3e c3 a8 df 3e 65 94 25 3e 60 53 3a bd
       0.364297 0.43683442 0.1616989 -0.04548967
000290 23 3f 05 3e af 50 dc 3d 2f de 9e 3e 2d 25 04 3f
       0.13012366 0.10757577 0.31028888 0.51619226
0002a0 2e ec 34 3e 74 ee 31 3d b8 94 07 3e ca a4 23 3e
       0.1766822 0.043440297 0.13240325 0.15980831
0002b0 74 03 32 3d 25 35 33 be 80 d6 e3 3c 08 e2 e7 3d
       0.043460324 -0.17500742 0.027812243 0.11322409
0002c0 20 47 ff 3c 6e 33 38 be 54 0b 82 3d 38 b6 72 3d
       0.031161845 -0.17988369 0.06349817 0.05925581
0002d0 fa 53 06 3e 30 1a 88 3d 6c d7 1e bd f6 c1 19 be
       0.13117972 0.0664562 -0.03877966 -0.15015396
0002e0 a8 cc c4 bc 40 6c fa 3b 80 7a db 3a d4 d8 95 3d
       -0.024023369 0.007642299 0.0016744882 0.07316747
0002f0 b0 a7 3c bc cf 37 c2 bd ac 70 1b be 22 9b bc bd
       -0.011514589 -0.09483301 -0.151797 -0.09209277
000300 f7 39 1b be 60 cb b6 bc 4e ed 2b 3f 70 a1 b4 3e
       -0.1515883 -0.022313774 0.67158973 0.35279417
000310 e8 7a 39 bd 76 53 da 3d 7b de 89 bb e0 0c 03 3f
       -0.04528323 0.1066045 -0.00420743 0.5119152
000320 b4 31 02 3f f7 d6 16 3f 41 df 09 3f 2e a8 7b be
       0.5085709 0.5892176 0.53856283 -0.24575874
000330 35 8e 40 bd 2b 95 a3 bd 13 09 c5 3e 08 47 46 bf
       -0.04701062 -0.07987436 0.38483486 -0.77452135
000340 66 a6 ae 3e 95 7a 2f 3f 81 7a 01 3f f5 07 16 be
       0.34111327 0.6854642 0.5057755 -0.14651473
000350 26 8c e5 3e 79 42 f6 3e 6c be 1d 3f 31 a6 e8 be
       0.44833487 0.4809759 0.61618686 -0.45439294
000360 98 2d cd 3c c1 7b f0 bd 20 74 ea 3d c0 94 f6 3d
       0.025046155 -0.11742354 0.1144793 0.120400906
000370 52 55 e1 bd 40 f1 5a 3c 18 af 8c 3d f4 f9 3c bd
       -0.11002602 0.013363183 0.06869334 -0.04613681
000380 46 f8 99 bd 0a 16 33 3e c0 37 7b bc e0 c6 87 bd
       -0.075180575 0.17488876 -0.015333116 -0.06629729
000390 80 7e fe bb 30 0f 45 3d c6 d9 4e 3e 78 51 4a be
       -0.007766545 0.048110187 0.20200261 -0.1975764
0003a0 86 7d 10 be e5 6c f4 bd 73 29 0e be 20 f1 b1 3b
       -0.14110383 -0.119348325 -0.13882999 0.0054303557
0003b0 00 76 87 bc 1c 9c 0f 3d 79 3f 0a be 0c c1 4c be
       -0.016535759 0.035060987 -0.13500775 -0.19995517
0003c0 88 4b 2d be d9 c0 3f be 6a 63 ae bd 0a cb 79 3d
       -0.16923344 -0.1872591 -0.085150555 0.06098465
0003d0 c8 59 28 3e 0b 02 30 be 59 c6 db 3d 0a bd c0 3d
       0.16440499 -0.1718828 0.10731191 0.09411056
0003e0 df d6 90 3c e7 99 18 be c5 3b 20 3c 7f 07 d5 bd
       0.017680584 -0.14902459 0.009779875 -0.104018204
0003f0 cb b5 23 be dc b9 3b be e8 c9 2f be 9a 04 f2 bd
       -0.15987317 -0.18332618 -0.17166865 -0.11817284

2.bias f4 [24]
000000 a4 e1 c8 3e ca 92 0c be 8b 6b 83 3e c4 7f 07 3e
       0.3923465 -0.1372787 0.25667986 0.13232332
000010 e1 a8 27 be cc fd 6a 3e 04 a0 0f 3f 9c 8c 9e bd
       -0.16373016 0.22948378 0.5610354 -0.07741663
000020 e3 13 53 3d f8 33 cf bd 3c b3 d6 bc b7 a6 b4 3e
       0.051532637 -0.10117334 -0.026208512 0.35283443
000030 c4 bd 5a bd 9c ef 1b 3c 67 eb db 3e ac 00 18 3e
       -0.05340363 0.009517577 0.42953035 0.14844006
000040 f5 fa eb 3e b0 9c 93 3e 28 0f d6 3c 13 ec 1d be
       0.46089903 0.2883048 0.026130274 -0.15422086
000050 bb 05 6f 3e bd ea 0d be 0c ed b9 3e 79 47 2c be
       0.2334203 -0.13859077 0.36313665 -0.1682414

4.weight f4 [3, 24]
000000 f4 5b 05 3f f0 9c 5d bd e7 64 f2 3d 49 e0 af bd
       0.52093434 -0.054104745 0.11835652 -0.08587701
000010 50 71 86 3c b4 57 41 3e b9 b4 25 3f ae f4 4f 3e
       0.016411453 0.18881112 0.64728886 0.20308182
000020 dc 92 12 3d 40 cc 45 bc 7a ae bb bd 03 b7 c2 3e
       0.035784587 -0.012072623 -0.09164138 0.38030252
000030 e8 3f ed 3c 5f 48 bf 3e 2f a6 83 3e 79 2c 09 3d
       0.028961137 0.37359902 0.25712726 0.033489678
000040 f8 6e c7 3e 91 db 2b 3e 78 ad f8 3d 50 4a 28 3e
       0.3895185 0.16782977 0.121424615 0.16434598
000050 4d 43 0d 3f 9f a3 37 3e 80 94 4e 39 7e 8d 2b 3e
       0.5518082 0.1793351 0.00019701011 0.16753194
000060 e8 b9 e4 3e 71 e9 84 3d fc 3d 49 3f 77 14 44 be
       0.44673085 0.06489838 0.78610206 -0.19148432
000070 ae 13 45 3e 8a 92 3e 3f 97 4e 99 bf 92 7b 4b 3e
       0.19245788 0.7444235 -1.1977109 0.19871357
000080 cf 0a 6f 3f 00 4d 4e 3b f4 46 89 bc ca f8 02 3f
       0.9337587 0.0031479 -0.016757466 0.5116087
000090 32 5a 06 be a4 8d 1d bf 78 41 23 3f 04 f5 2c 3f
       -0.13120344 -0.6154425 0.6377177 0.67561364
0000a0 c3 c8 01 3f 8f 6c 0c 3f 8a df 0b 3e 1f c0 1e be
       0.50696963 0.5485315 0.13659492 -0.15502976
0000b0 33 d3 ae bf 2c 92 e2 3d 70 40 69 3f 00 8c bc 3d
       -1.3658203 0.11063036 0.9111395 0.092063904
0000c0 78 c8 83 3e e3 5d 75 3b 6d f5 1a 3e b7 d2 2d be
       0.25738883 0.0037439994 0.15132685 -0.16974913
0000d0 5e 74 44 3e f2 3f 05 3e 55 3a 35 3f 7e 17 29 3e
       0.19185016 0.13012674 0.7079213 0.16512868
0000e0 59 6e 2d bd 5e 64 3c be b4 0d d0 3d 81 00 9c 3e
       -0.042341564 -0.18397662 0.10158864 0.30469134
0000f0 3c 9d 29 3d 91 2e 83 3f d5 d5 91 3d 82 1c 37 be
       0.041409716 1.0248586 0.07120863 -0.17881969
000100 78 ba 09 3e 37 7c 83 bd 78 a9 4e 3e d0 e3 9c bc
       0.13450038 -0.064201765 0.20181835 -0.019151598
000110 fd 26 74 3f 40 40 0d 3b 99 39 ae bd ac be 14 3d
       0.9537199 0.0021553189 -0.0850708 0.03631465

4.bias f4 [3]
000000 3a b7 ae 3c 79 3c 37 be 7a d2 c2 3d
       0.021327604 -0.17894162 0.095128015
