models/local_dqn_episode_50.pth (torch, 6129 bytes, 6 tensors)

0.weight f4 [24, 3]
0	0x3e95caaa	0.29256183
1	0x3d44d240	0.048052073
2	0xbef0fd39	-0.47068194
3	0xbe7ec33c	-0.24879164
4	0xbd329440	-0.043598413
5	0xbd8d0270	-0.068852305
6	0xbf531fab	-0.82470196
7	0xbe373168	-0.1788994
8	0x3f1e1620	0.6175251
9	0x3d21caac	0.039499924
10	0x3f082c24	0.53192353
11	0xbf0aeecb	-0.5427062
12	0xbec80a11	-0.3907018
13	0x3ef42fe0	0.47692776
14	0x3e053d8c	0.1301176
15	0xbf40e64a	-0.75351393
16	0xbc11ae80	-0.008891702
17	0x3edb65fb	0.42851242
18	0xbf9f39f4	-1.2439561
19	0xbe839c59	-0.2570522
20	0x3ed79867	0.4210846
21	0x3fad4f0e	1.353975
22	0x3f00d02a	0.50317633
23	0x3f4ec140	0.80763626
24	0x3f18e129	0.5971857
25	0x3bc18680	0.005905926
26	0xbb4327b4	-0.0029778304
27	0x3f8b3f22	1.0878642
28	0x3f0ff518	0.5623336
29	0x3e315a08	0.173195
30	0x3f80ea05	1.0071417
31	0x3efbb92c	0.49164712
32	0x3e0530d3	0.13006906
33	0x3f086538	0.5327945
34	0xbe821570	-0.2540698
35	0x3ebb678c	0.36602437
36	0xbf7b45b1	-0.98153216
37	0xbedc9f30	-0.430902
38	0x3e993e71	0.29930452
39	0xbe339dcc	-0.17540663
40	0x3e06f81c	0.13180584
41	0xbca2fb20	-0.019895136
42	0x3f82d77d	1.0222012
43	0xbeb82561	-0.35966018
44	0xbeb55c0a	-0.35421783
45	0xbf069a2b	-0.5257899
46	0x3e8cf246	0.2752859
47	0xbe980699	-0.29692534
48	0x3f4c3971	0.7977515
49	0xbf11b6b5	-0.56919414
50	0xbe97ecc0	-0.29672813
51	0xbf06518e	-0.5246819
52	0xbebf6de0	-0.37388515
53	0x3f4aa1f1	0.7915335
54	0x3f69c858	0.91321325
55	0x3e01e7f8	0.12686145
56	0xbd94fc59	-0.07274694
57	0x3ed4615a	0.41480523
58	0x3ee0e3e4	0.43923867
59	0xbe96ad14	-0.29428923
60	0x3f451af3	0.76994246
61	0xbdcaec6c	-0.09908375
62	0x3d949972	0.0725583
63	0x3f451676	0.769874
64	0xbe1f44e0	-0.15553617
65	0xbe457ff9	-0.19287099
66	0x3f86c6b3	1.0529388
67	0xbf015c4e	-0.5053147
68	0x3dc9217d	0.098208405
69	0xbf30235d	-0.6880396
70	0x3ea79c86	0.32736605
71	0xbe89a265	-0.2688171

0.bias f4 [24]
0	0xbf036956	-0.51332605
1	0xbe1c49c2	-0.15262511
2	0xbdbd6759	-0.092482276
3	0x3f489e3a	0.78366435
4	0xbef228dc	-0.47296798
5	0xbd40135c	-0.046893463
6	0x3e077086	0.13226518
7	0xbebe6c49	-0.3719199
8	0x3f2c9820	0.67419624
9	0x3eaeb613	0.34123287
10	0x3de8e6db	0.11372157
11	0xbd876277	-0.066105776
12	0xbbd9655c	-0.0066343974
13	0xbe9fc565	-0.31205288
14	0x3f433c66	0.76264036
15	0x3f612634	0.8794892
16	0x3f2545ee	0.6455983
17	0x3d534cd9	0.05158696
18	0x3edb356b	0.42814192
19	0xbf0683b6	-0.52544725
20	0x3f64efb6	0.8942827
21	0x3f10f30d	0.56620866
22	0x3f19d1ec	0.6008594
23	0x3f81883b	1.0119699

2.weight f4 [24, 24]
0	0xbe0a9cac	-0.13536328
1	0xbd25b894	-0.04045923
2	0x3e8b807e	0.2724647
3	0x3e921f76	0.28539628
4	0x3e39d6cc	0.18148345
5	0xbd36b123	-0.044602524
6	0xbe84889e	-0.2588548
7	0x3c97ea26	0.018544268
8	0x3eb4f02d	0.3533949
9	0x3ea4616d	0.3210558
10	0x3ede2be7	0.4339287
11	0xbf2d13df	-0.67608446
12	0x3d97db9a	0.074149325
13	0x3e08782c	0.13327092
14	0x3e8d4920	0.27594852
15	0xbd0a5c34	-0.033779338
16	0x3e9a40ab	0.30127463
17	0x3edd8585	0.4326593
18	0x3ef926e1	0.48662475
19	0xbdb292de	-0.08719419
20	0x3e1bbb68	0.15208209
21	0x3edac724	0.42730057
22	0x3f018adc	0.5060251
23	0xbb2c717d	-0.0026312761
24	0x3c379fa0	0.011207491
25	0x3c152eb0	0.009105369
26	0x3e38ca16	0.1804584
27	0x3de66e7f	0.11251544
28	0xbdb689e3	-0.089130186
29	0xbd2a2b2c	-0.04154508
30	0x3e14aa92	0.14518192
31	0xbddd5cf1	-0.10808743
32	0xbe580fc4	-0.21099764
33	0x3d07fba1	0.033198956
34	0xbdcb97f5	-0.09941093
35	0xbe4dcee5	-0.20098455
36	0x3ddf0100	0.108888626
37	0xbdbc0326	-0.09180288
38	0x3db0519c	0.08609316
39	0x3d529564	0.051412
40	0xbe7935b2	-0.2433689
41	0xbe471e2f	-0.19445108
42	0xbcaa5971	-0.020794602
43	0x3d29eda4	0.041486397
44	0x3d764f34	0.060134128
45	0x3d5356c5	0.05159642
46	0xbe620c8a	-0.22075096
47	0x3e147263	0.1449676
48	0xbdc2ca96	-0.095112965
49	0x3e26050a	0.1621286
50	0x3ee05d3d	0.43821135
51	0x3eb3b0a5	0.35095707
52	0x3d6ebe60	0.058287024
53	0xbe66e2fc	-0.22547525
54	0xbe87164a	-0.26384193
55	0x3e69b795	0.22823937
56	0x3f06b110	0.52613926
57	0x3ecbf4ef	0.39835307
58	0x3f1e228e	0.61771476
59	0xbee18f66	-0.44054717
60	0xbeaed499	-0.34146574
61	0xbdd7e66b	-0.105419956
62	0x3e950e3b	0.2911242
63	0xbea4da74	-0.32197917
64	0x3eed2c21	0.4632273
65	0x3f0dfa12	0.554597
66	0x3ef14ad2	0.47127396
67	0x3d8eb6bc	0.069684476
68	0x3ecfd8f7	0.4059522
69	0x3ec5dd24	0.3864528
70	0x3e87c414	0.26516783
71	0xbed54fb8	-0.41662383
72	0x3d646320	0.055758595
73	0x3db112bc	0.086461514
74	0xbe341deb	-0.17589538
75	0xbe52dc9e	-0.20591971
76	0xbe330f72	-0.1748636
77	0xbdbfb3bc	-0.093604535
78	0xbe2e46ea	-0.17019239
79	0xbe1c7e25	-0.15282495
80	0xbe308504	-0.17238241
81	0xbdc56b8a	-0.09639652
82	0xbe3f109b	-0.18658678
83	0x3da85d54	0.08220926
84	0xbddf059d	-0.108897425
85	0xbce5c668	-0.028048709
86	0x3d63c630	0.05560893
87	0xbe372a73	-0.17887287
88	0x3d8d18df	0.068895094
89	0xbccc1750	-0.02491346
90	0x3d87ac2d	0.06624637
91	0x3db134b0	0.086526275
92	0xbdcd16d0	-0.10014117
93	0x3e25715f	0.16156529
94	0xbdb6ba46	-0.089222476
95	0xbe203c82	-0.15648082
96	0x3d54dec8	0.051970273
97	0x3d8077f4	0.06272879
98	0x3e096632	0.1341789
99	0xbd179020	-0.037002683
100	0x3e503066	0.20330963
101	0x3dfe1974	0.124071985
102	0xbde26893	-0.11055102
103	0xbda04390	-0.078253865
104	0x3d7111a8	0.05885473
105	0xbe11f261	-0.14252616
106	0xbd5cc58e	-0.05389934
107	0x3df6fa5a	0.120594695
108	0xbcf98bb3	-0.030462122
109	0x3db7768c	0.08958158
110	0xbdcf9b24	-0.101370126
111	0x3e20ac17	0.15690647
112	0x3db4360c	0.08799371
113	0xbe33c620	-0.17556047
114	0x3d3aa3a0	0.0455662
115	0xbc8ef2a0	-0.017449677
116	0x3d27f713	0.041007113
117	0xbe37da44	-0.17954355
118	0xbe15f64f	-0.1464474
119	0xbe06156d	-0.13094111
120	0xbddda341	-0.10822154
121	0xbb79c940	-0.003811434
122	0x3e0df1d6	0.13861784
123	0x3ea4cca7	0.32187387
124	0x3e3ada58	0.18247354
125	0xbe068dfe	-0.13140103
126	0x3ccdd16f	0.02512428
127	0x3c8d2ab9	0.017232286
128	0x3ea2ab9f	0.31771562
129	0x3ebaf532	0.36515194
130	0x3f1a6a1b	0.60318154
131	0xbe9dee62	-0.30845934
132	0xbe7b2172	-0.24524477
133	0xbc955618	-0.01822953
134	0x3e91c960	0.2847395
135	0xbf233038	-0.6374545
136	0x3f0ce20a	0.5503241
137	0x3f172b10	0.59050083
138	0x3f014b9e	0.5050601
139	0xbe063c86	-0.13109025
140	0x3eab7602	0.3348847
141	0x3f0f55ae	0.5599011
142	0x3ed276e2	0.41106325
143	0xbf0951ef	-0.53640646
144	0xbcad9fe0	-0.021194398
145	0xbd742938	-0.05960962
146	0x3ee9a24a	0.4563163
147	0x3f2e765e	0.68149364
148	0x3ddd3a68	0.10802156
149	0x3f29fac1	0.66398245
150	0x3e580c72	0.21098498
151	0xbe964ce9	-0.29355553
152	0x3e41dd0f	0.18931983
153	0x3e298657	0.16555153
154	0xbded28f4	-0.11580077
155	0xbeb8503f	-0.35998723
156	0x3f074782	0.5284349
157	0x3e2f2924	0.17105538
158	0x3e5ba851	0.21450926
159	0x3f043199	0.5163818
160	0x3ebb683e	0.36602968
161	0x3eff7cab	0.49899802
162	0x3e340ea5	0.17583711
163	0xbd3a5360	-0.04548967
164	0x3ddcca9f	0.107808344
165	0x3de06809	0.10957343
166	0x3e9f44af	0.3110709
167	0x3e791e32	0.24327925
168	0x3e34ec2e	0.1766822
169	0x3d31ee74	0.043440297
170	0x3e0794b8	0.13240325
171	0x3e23a4ca	0.15980831
172	0x3d320374	0.043460324
173	0xbe333525	-0.17500742
174	0x3ce3d680	0.027812243
175	0x3de7e208	0.11322409
176	0x3cff4720	0.031161845
177	0xbe38336e	-0.17988369
178	0x3d820b54	0.06349817
179	0x3d72b638	0.05925581
180	0x3e0653fa	0.13117972
181	0x3d881a30	0.0664562
182	0xbd1ed76c	-0.03877966
183	0xbe19c1f6	-0.15015396
184	0xbcc4cca8	-0.024023369
185	0x3bfa6c40	0.007642299
186	0x3adb7a80	0.0016744882
187	0x3d95d8d4	0.07316747
188	0xbc3ca7b0	-0.011514589
189	0xbdc237cf	-0.09483301
190	0xbe1b70ac	-0.151797
191	0xbdbc9b22	-0.09209277
192	0xbe1b39f7	-0.1515883
193	0xbcb6cb60	-0.022313774
194	0x3edbf37d	0.42959204
195	0x3e91da4c	0.2848686
196	0xbd397ae8	-0.04528323
197	0xbe131485	-0.14363296
198	0xbdf82374	-0.12116137
199	0x3f054033	0.52051085
200	0x3ef98cae	0.48740143
201	0x3f130a44	0.5743754
202	0x3f05bdc7	0.522427
203	0xbe68452c	-0.22682637
204	0xbe569815	-0.20956452
205	0xbda3952b	-0.07987436
206	0x3eb6e230	0.35719442
207	0xbf479d9b	-0.7797486
208	0x3e9f838a	0.31155044
209	0x3f07dd90	0.5307245
210	0x3ef78285	0.48341766
211	0xbe1607f5	-0.14651473
212	0x3edc5d30	0.43039846
213	0x3ee8c55b	0.4546307
214	0x3f196ebc	0.5993459
215	0xbee787a8	-0.45220685
216	0x3ccd2d98	0.025046155
217	0xbdf07bc1	-0.11742354
218	0x3dea7420	0.1144793
219	0x3df694c0	0.120400906
220	0xbde15552	-0.11002602
221	0x3c5af140	0.013363183
222	0x3d8caf18	0.06869334
223	0xbd3cf9f4	-0.04613681
224	0xbd99f846	-0.075180575
225	0x3e33160a	0.17488876
226	0xbc7b37c0	-0.015333116
227	0xbd87c6e0	-0.06629729
228	0xbbfe7e80	-0.007766545
229	0x3d450f30	0.048110187
230	0x3e4ed9c6	0.20200261
231	0xbe4a5178	-0.1975764
232	0xbe107d86	-0.14110383
233	0xbdf46ce5	-0.119348325
234	0xbe0e2973	-0.13882999
235	0x3bb1f120	0.0054303557
236	0xbc877600	-0.016535759
237	0x3d0f9c1c	0.035060987
238	0xbe0a3f79	-0.13500775
239	0xbe4cc10c	-0.19995517
240	0xbe2d4b88	-0.16923344
241	0xbe3fc0d9	-0.1872591
242	0xbdae636a	-0.085150555
243	0x3d79cb0a	0.06098465
244	0x3e2859c8	0.16440499
245	0xbe30020b	-0.1718828
246	0x3ddbc659	0.10731191
247	0x3dc0bd0a	0.09411056
248	0x3c90d6df	0.017680584
249	0xbe1899e7	-0.14902459
250	0x3c203bc5	0.009779875
251	0xbdd5077f	-0.104018204
252	0xbe23b5cb	-0.15987317
253	0xbe3bb9dc	-0.18332618
254	0xbe2fc9e8	-0.17166865
255	0xbdf2049a	-0.11817284

2.bias f4 [24]
0	0x3e663ba6	0.22483692
1	0xbe0c92ca	-0.1372787
2	0x3e61e9f3	0.22061901
3	0x3e077fc4	0.13232332
4	0xbe483011	-0.19549586
5	0x3e31d6ca	0.17367092
6	0x3ef2aad2	0.4739595
7	0xbd9e8c9c	-0.07741663
8	0x3d151563	0.03639735
9	0xbdcf33f8	-0.10117334
10	0xbcd6b33c	-0.026208512
11	0x3e642190	0.22278428
12	0xbd5abdc4	-0.05340363
13	0xbc985ce6	-0.018598985
14	0x3eb416de	0.35173696
15	0x3e0c6fcd	0.13714524
16	0x3eaabe05	0.33348098
17	0x3e6dbbe9	0.23216213
18	0x3cd60f28	0.026130274
19	0xbe1dec13	-0.15422086
20	0x3e28a8af	0.16470598
21	0xbe0deabd	-0.13859077
22	0x3eb65344	0.35610402
23	0xbe2c4779	-0.1682414

4.weight f4 [3, 24]
0	0x3ed558f4	0.41669428
1	0xbd5d9cf0	-0.054104745
2	0x3d934a60	0.0719192
3	0xbdafe049	-0.08587701
4	0x3c867150	0.016411453
5	0x3e26ee3c	0.16301817
6	0x3ed69ed8	0.41918063
7	0x3e4ff4ae	0.20308182
8	0x3d2b5ca5	0.0418364
9	0xbc45cc40	-0.012072623
10	0xbdbbae7a	-0.09164138
11	0x3e9a55f7	0.3014371
12	0x3ced3fe8	0.028961137
13	0x3e9038b2	0.28168255
14	0x3e51407b	0.20434754
15	0x3b777d6a	0.0037763962
16	0x3e9a3c37	0.30124065
17	0x3dcdca68	0.100483716
18	0x3df8ad78	0.121424615
19	0x3e284a50	0.16434598
20	0x3ea24caf	0.3169913
21	0x3e37a39f	0.1793351
22	0x3b1462e8	0.002264196
23	0x3e2b8d7e	0.16753194
24	0x3ed2372b	0.41057715
25	0x3d84e971	0.06489838
26	0x3f41a97b	0.7564923
27	0xbe441477	-0.19148432
28	0x3e4513ae	0.19245788
29	0x3f36cf5e	0.7141017
30	0xbf9cf1ad	-1.2261254
31	0x3e4b7b92	0.19871357
32	0x3f689b23	0.9086172
33	0x3b4e4d00	0.0031479
34	0xbc8946f4	-0.016757466
35	0x3ef5c62f	0.48002765
36	0xbe065a32	-0.13120344
37	0xbf4ec13e	-0.80763614
38	0x3f1b879e	0.6075381
39	0x3f262d4d	0.64912874
40	0x3ef10f05	0.47081771
41	0x3f058d87	0.5216908
42	0x3e0bdf8a	0.13659492
43	0xbe1ec01f	-0.15502976
44	0xbfb235e5	-1.3922697
45	0x3de2922c	0.11063036
46	0x3f62b33b	0.88554734
47	0x3dbc8c00	0.092063904
48	0x3e1b1f10	0.15148568
49	0x3b755de3	0.0037439994
50	0x3db96a62	0.09053494
51	0xbe2dd2b7	-0.16974913
52	0x3e23ef94	0.1600936
53	0x3dc3be3e	0.0955777
54	0x3eaf5042	0.3424092
55	0x3e29177e	0.16512868
56	0xbd981c76	-0.074273035
57	0xbe3c645e	-0.18397662
58	0x3dd00db4	0.10158864
59	0x3e843c31	0.25827172
60	0x3d299d3c	0.041409716
61	0x3ee99e1a	0.45628434
62	0x3da7184e	0.081589326
63	0xbe3d560a	-0.18489853
64	0x3de4b0ba	0.111665204
65	0xbc80c07d	-0.015716786
66	0x3e4ea978	0.20181835
67	0xbc9ce3d0	-0.019151598
68	0x3f1239a5	0.5711921
69	0x3b0d4040	0.0021553189
70	0xbe014f07	-0.12627803
71	0x3d14beac	0.03631465

4.bias f4 [3]
0	0xbe5b8b4b	-0.21439855
1	0xbe3da037	-0.18518148
2	0xbe2c9e0a	-0.16857162
