models/local_dqn_episode_20.pth (torch, 6129 bytes, 6 tensors)

0.weight f4 [24, 3]
000000 aa ca 95 3e 40 d2 44 3d 39 fd f0 be 3c c3 7e be
       0.29256183 0.048052073 -0.47068194 -0.24879164
000010 40 94 32 bd 70 02 8d bd 37 6c 40 bf 68 31 37 be
       -0.043598413 -0.068852305 -0.7516512 -0.1788994
000020 bc 5f 45 3f 7e 84 4e 3e 24 2c 08 3f 25 ca 1b bf
       0.77099204 0.2016773 0.53192353 -0.60855323
000030 11 0a c8 be e0 2f f4 3e 8c 3d 05 3e 4a e6 40 bf
       -0.3907018 0.47692776 0.1301176 -0.75351393
000040 80 ae 11 bc 52 fe b2 3e f4 39 9f bf 59 9c 83 be
       -0.008891702 0.34959656 -1.2439561 -0.2570522
000050 9a 26 a9 3e 9d 32 da 3f 2a d0 00 3f 3d ab 4a 3f
       0.33037263 1.7046696 0.50317633 0.7916754
000060 69 64 67 3f 80 86 c1 3b 74 72 f4 3b 10 1f b2 3f
       0.9038759 0.005905926 0.007459933 1.391573
000070 18 f5 0f 3f d9 0f 3c 3e f2 42 aa 3f 2c b9 fb 3e
       0.5623336 0.1836542 1.330168 0.49164712
000080 bc b3 03 3e 96 3b 6b 3e 70 15 82 be 25 06 cb 3e
       0.12861532 0.22971949 -0.2540698 0.39653125
000090 b1 45 7b bf 30 9f dc be 8c bf 44 3e cc 9d 33 be
       -0.98153216 -0.430902 0.19213694 -0.17540663
0000a0 1c f8 06 3e 20 fb a2 bc 85 b7 a8 3f 61 25 b8 be
       0.13180584 -0.019895136 1.3181006 -0.35966018
0000b0 f6 08 c9 be 3f be 65 bf 46 f2 8c 3e 0e 00 1b be
       -0.3926465 -0.8974342 0.2752859 -0.1513674
0000c0 1d ff 8b 3f b5 b6 11 bf 35 4a bc be ad fe 27 bf
       1.0937229 -0.56919414 -0.36775365 -0.6562298
0000d0 e0 6d bf be 08 16 2f 3f ff ad 9c 3f f8 e7 01 3e
       -0.37388515 0.6839299 1.2240599 0.12686145
0000e0 db de 87 bd 5a 61 d4 3e e4 e3 e0 3e 14 ad 96 be
       -0.06634303 0.41480523 0.43923867 -0.29428923
0000f0 49 bd 89 3f 6c ec ca bd 04 49 b2 3d 3d 92 88 3f
       1.076089 -0.09908375 0.08705333 1.0669628
000100 e0 44 1f be 82 76 34 be 2b 46 ad 3f 4e 5c 01 bf
       -0.15553617 -0.17623332 1.3537039 -0.5053147
000110 56 8a e6 3d 04 e4 87 bf 86 9c a7 3e 8e df ee bd
       0.11256854 -1.061646 0.32736605 -0.116637334

0.bias f4 [24]
000000 56 69 03 bf c2 49 1c be 31 af 9d bb b3 d4 a8 3f
       -0.51332605 -0.15262511 -0.004812144 1.3189911
000010 dc 28 f2 be 8d eb 5c 3e 56 3b 3f 3f ba 12 25 bd
       -0.47296798 0.2157423 0.74699914 -0.040301062
000020 23 2c 8b 3f a1 28 3f 3f bb 41 e6 3e c1 42 67 be
       1.0872844 0.7467137 0.44972023 -0.22584058
000030 fc 10 1d 3f 65 c5 9f be f9 14 96 3f 0d 15 81 3f
       0.6135404 -0.31205288 1.172515 1.0084549
000040 eb 50 86 3f 11 45 1e b9 fa 8d 51 3f b6 83 06 bf
       1.0493444 -0.00015093783 0.81857264 -0.52544725
000050 63 2f a7 3f 63 17 7f 3f ff cb 81 3f d9 4b 92 3f
       1.3061336 0.9964506 1.014038 1.1429397

2.weight f4 [24, 24]
000000 ac 9c 0a be 94 b8 25 bd 5c f7 72 3e 40 84 62 3f
       -0.13536328 -0.04045923 0.23727173 0.8848305
000010 cc d6 39 3e 69 43 95 3d 83 82 4f 3e 50 10 52 3e
       0.18148345 0.07288248 0.2026463 0.20514035
000020 c4 c1 4f 3f 8c 9e 2e 3f 0d a2 3d 3f 12 26 06 bf
       0.8115504 0.68210673 0.74075395 -0.5240184
000030 3a 6e f1 3e 2c 78 08 3e c6 ec 3c 3f 62 87 0b 3f
       0.4715441 0.13327092 0.7379879 0.5450345
000040 2e 29 45 3f b9 51 ce 3e cc f1 64 3f de 92 b2 bd
       0.7701596 0.40296724 0.8943145 -0.08719419
000050 2d 90 1b 3f 3a 4b 60 3f 23 29 6a 3f 45 6c 14 3f
       0.6076687 0.87614787 0.9146902 0.57977706
000060 a0 9f 37 3c b0 2e 15 3c 16 ca 38 3e 7f 6e e6 3d
       0.011207491 0.009105369 0.1804584 0.11251544
000070 e3 89 b6 bd 2c 2b 2a bd 92 aa 14 3e f1 5c dd bd
       -0.089130186 -0.04154508 0.14518192 -0.10808743
000080 c4 0f 58 be a1 fb 07 3d f5 97 cb bd e5 ce 4d be
       -0.21099764 0.033198956 -0.09941093 -0.20098455
000090 00 01 df 3d 26 03 bc bd 9c 51 b0 3d 64 95 52 3d
       0.108888626 -0.09180288 0.08609316 0.051412
0000a0 b2 35 79 be 2f 1e 47 be 71 59 aa bc a4 ed 29 3d
       -0.2433689 -0.19445108 -0.020794602 0.041486397
0000b0 34 4f 76 3d c5 56 53 3d 8a 0c 62 be 63 72 14 3e
       0.060134128 0.05159642 -0.22075096 0.1449676
0000c0 96 ca c2 bd 0a 05 26 3e 5b 30 1f 3f 15 92 44 3f
       -0.095112965 0.1621286 0.6218316 0.76785403
0000d0 60 be 6e 3d 59 9d 4f 3c a3 c3 84 bd c7 8e fc 3e
       0.058287024 0.012671792 -0.06482627 0.4932768
0000e0 71 a1 5f 3f 99 a5 3a 3f 5e 67 72 3f 5a 22 58 be
       0.87355715 0.7290893 0.94688976 -0.21106854
0000f0 04 98 f9 bd 6b e6 d7 bd 86 95 29 3f fc a9 e9 bd
       -0.12187198 -0.105419956 0.6624378 -0.11409375
000100 9a 30 56 3f 15 07 2a 3f 80 6f 52 3f bc b6 8e 3d
       0.8366791 0.66417056 0.82201385 0.069684476
000110 9e cb 3f 3f dc 2c 3f 3f 95 c8 1a 3f 9a 37 68 be
       0.7492007 0.74677825 0.60462314 -0.2267746
000120 20 63 64 3d bc 12 b1 3d eb 1d 34 be 9e dc 52 be
       0.055758595 0.086461514 -0.17589538 -0.20591971
000130 72 0f 33 be bc b3 bf bd ea 46 2e be 25 7e 1c be
       -0.1748636 -0.093604535 -0.17019239 -0.15282495
000140 04 85 30 be 8a 6b c5 bd 9b 10 3f be 54 5d a8 3d
       -0.17238241 -0.09639652 -0.18658678 0.08220926
000150 9d 05 df bd 68 c6 e5 bc 30 c6 63 3d 73 2a 37 be
       -0.108897425 -0.028048709 0.05560893 -0.17887287
000160 df 18 8d 3d 50 17 cc bc 2d ac 87 3d b0 34 b1 3d
       0.068895094 -0.02491346 0.06624637 0.086526275
000170 d0 16 cd bd 5f 71 25 3e 46 ba b6 bd 82 3c 20 be
       -0.10014117 0.16156529 -0.089222476 -0.15648082
000180 c8 de 54 3d f4 77 80 3d 68 ed 29 3e 20 90 17 bd
       0.051970273 0.06272879 0.1659447 -0.037002683
000190 66 30 50 3e e8 93 1f 3e 32 5a a1 bd 5c 6a 3e bd
       0.20330963 0.15583766 -0.078785315 -0.04648815
0001a0 30 97 b9 3d 66 d6 e2 bd 30 52 b5 bc 5a 04 1c 3e
       0.0906204 -0.110760495 -0.022133917 0.15236035
0001b0 00 db aa 3a 8c 76 b7 3d 24 9b cf bd 46 33 41 3e
       0.0013035238 0.08958158 -0.101370126 0.18867216
0001c0 0c 36 b4 3d ea 3e 13 be f8 5f 9e 3d a0 f2 8e bc
       0.08799371 -0.14379469 0.07733148 -0.017449677
0001d0 ec 09 95 3d 4a 53 17 be 40 de ea bd 75 1c cb bd
       0.07277283 -0.14777866 -0.11468172 -0.09917537
0001e0 41 a3 dd bd 40 c9 79 bb bf 64 85 3e dc c2 48 3f
       -0.10822154 -0.003811434 0.26053426 0.7842233
0001f0 58 da 3a 3e 3f d6 8f 3d ff c0 a2 3e 88 51 8b 3e
       0.18247354 0.07023286 0.3178787 0.2721064
000200 f5 6f 2f 3f 9d a7 33 3f ae 54 6e 3f 17 68 ba bd
       0.6853021 0.7017763 0.9309796 -0.09101885
000210 77 a6 14 3d 18 56 95 bc 7a 78 2c 3f 70 b7 9f be
       0.036291566 -0.01822953 0.6737133 -0.3119464
000220 4c 4d 71 3f 3f aa 26 3f a1 e3 5d 3f 86 3c 06 be
       0.9425857 0.65103525 0.8667546 -0.13109025
000230 40 b6 32 3f 37 ec 6f 3f 65 3f 43 3f d9 c5 55 be
       0.6980934 0.9371981 0.7626861 -0.20876254
000240 e0 9f ad bc 38 29 74 bd e2 c7 59 3e c0 b8 59 3f
       -0.021194398 -0.05960962 0.21267655 0.8504753
000250 68 3a dd 3d 53 8c 10 3f ee dc 3c 3f 7c 4e 0e bf
       0.10802156 0.5646412 0.7377461 -0.5558851
000260 0e 07 26 3e 57 e5 e1 3b 9f eb b2 be 02 30 10 bf
       0.16213629 0.0068937945 -0.3494539 -0.56323254
000270 a1 42 6f 3f 24 29 2f 3e 3a ed 06 3e d2 95 91 3f
       0.9346104 0.17105538 0.13176432 1.1373847
000280 01 20 97 3e dc 07 af 3e c2 ac 33 3d 60 53 3a bd
       0.29516605 0.34185684 0.043865927 -0.04548967
000290 d2 14 ab 3d 1f 51 06 3d ee 3f 54 3e 82 70 6a 3f
       0.083535805 0.032792207 0.20727512 0.91577923
0002a0 2e ec 34 3e 74 ee 31 3d b8 94 07 3e ca a4 23 3e
       0.1766822 0.043440297 0.13240325 0.15980831
0002b0 74 03 32 3d 25 35 33 be 80 d6 e3 3c 08 e2 e7 3d
       0.043460324 -0.17500742 0.027812243 0.11322409
0002c0 20 47 ff 3c 6e 33 38 be 54 0b 82 3d 38 b6 72 3d
       0.031161845 -0.17988369 0.06349817 0.05925581
0002d0 fa 53 06 3e 30 1a 88 3d 6c d7 1e bd f6 c1 19 be
       0.13117972 0.0664562 -0.03877966 -0.15015396
0002e0 a8 cc c4 bc 40 6c fa 3b 80 7a db 3a d4 d8 95 3d
       -0.024023369 0.007642299 0.0016744882 0.07316747
0002f0 b0 a7 3c bc cf 37 c2 bd ac 70 1b be 22 9b bc bd
       -0.011514589 -0.09483301 -0.151797 -0.09209277
000300 f7 39 1b be 60 cb b6 bc 3e 8a 05 3f 29 4b 24 3f
       -0.1515883 -0.022313774 0.52164066 0.64177185
000310 e8 7a 39 bd ca 00 16 bd 63 08 57 be a1 a3 49 3f
       -0.04528323 -0.036621846 -0.20999293 0.787653
000320 a1 65 4d 3f ee d7 63 3f 49 c7 58 3f 1f 2d 3a bb
       0.802332 0.8900136 0.84679085 -0.0028408242
000330 2c 1a 77 be 2b 95 a3 bd c7 29 34 3f a2 54 49 bf
       -0.24131078 -0.07987436 0.7037625 -0.78644764
000340 a6 b0 28 3f 45 17 0c 3f 4e cd 50 3f f5 07 16 be
       0.65894544 0.54723006 0.8156327 -0.14651473
000350 63 8c 3d 3f 65 1f 4a 3f f9 89 6a 3f 17 48 05 bf
       0.7404234 0.78954154 0.9161678 -0.52063125
000360 98 2d cd 3c c1 7b f0 bd 20 74 ea 3d c0 94 f6 3d
       0.025046155 -0.11742354 0.1144793 0.120400906
000370 52 55 e1 bd 40 f1 5a 3c 18 af 8c 3d f4 f9 3c bd
       -0.11002602 0.013363183 0.06869334 -0.04613681
000380 46 f8 99 bd 0a 16 33 3e c0 37 7b bc e0 c6 87 bd
       -0.075180575 0.17488876 -0.015333116 -0.06629729
000390 80 7e fe bb 30 0f 45 3d c6 d9 4e 3e 78 51 4a be
       -0.007766545 0.048110187 0.20200261 -0.1975764
0003a0 86 7d 10 be e5 6c f4 bd 73 29 0e be 20 f1 b1 3b
       -0.14110383 -0.119348325 -0.13882999 0.0054303557
0003b0 00 76 87 bc 1c 9c 0f 3d 79 3f 0a be 0c c1 4c be
       -0.016535759 0.035060987 -0.13500775 -0.19995517
0003c0 88 4b 2d be d9 c0 3f be 6a 63 ae bd 0a cb 79 3d
       -0.16923344 -0.1872591 -0.085150555 0.06098465
0003d0 c8 59 28 3e 0b 02 30 be 59 c6 db 3d 0a bd c0 3d
       0.16440499 -0.1718828 0.10731191 0.09411056
0003e0 df d6 90 3c e7 99 18 be c5 3b 20 3c 7f 07 d5 bd
       0.017680584 -0.14902459 0.009779875 -0.104018204
0003f0 cb b5 23 be dc b9 3b be e8 c9 2f be 9a 04 f2 bd
       -0.15987317 -0.18332618 -0.17166865 -0.11817284

2.bias f4 [24]
000000 36 a0 43 3f ca 92 0c be ac 0c 11 3f c4 7f 07 3e
       0.7641634 -0.1372787 0.5665996 0.13232332
000010 e1 a8 27 be 77 fe 0e 3f 75 ea 28 3f 9c 8c 9e bd
       -0.16373016 0.5585703 0.65982753 -0.07741663
000020 7b ad a3 3e f8 33 cf bd 3c b3 d6 bc d7 32 39 3f
       0.31968293 -0.10117334 -0.026208512 0.723432
000030 c4 bd 5a bd 3b 5b f9 3e be a3 46 3f f4 24 da 3e
       -0.05340363 0.48702416 0.775936 0.42606318
000040 43 82 53 3f 3d 86 1e 3f 28 0f d6 3c b4 c9 fa bd
       0.8262064 0.6192358 0.026130274 -0.12245503
000050 4d 50 93 3e bd ea 0d be 10 5c 1e 3f 79 47 2c be
       0.28772202 -0.13859077 0.61859226 -0.1682414

4.weight f4 [3, 24]
000000 c2 5c 48 3f f0 9c 5d bd 03 c1 b4 3e 49 e0 af bd
       0.7826654 -0.054104745 0.35303506 -0.08587701
000010 50 71 86 3c ab 51 da 3e 46 f4 6f 3f ae f4 4f 3e
       0.016411453 0.42640433 0.93732107 0.20308182
000020 9b bd 80 3e 40 cc 45 bc 7a ae bb bd a1 75 23 3f
       0.25144657 -0.012072623 -0.09164138 0.6385136
000030 e8 3f ed 3c d0 f0 06 3f fb 08 03 3f 4f 9f 89 3e
       0.028961137 0.527112 0.5118558 0.26879355
000040 5b 83 27 3f 9f 0e dd 3e 78 ad f8 3d 50 4a 28 3e
       0.6543481 0.43175218 0.121424615 0.16434598
000050 fe 4c 56 3f 9f a3 37 3e 73 76 5b 3e 7e 8d 2b 3e
       0.8371123 0.1793351 0.21431904 0.16753194
000060 e7 90 31 3f 71 e9 84 3d 21 eb 86 3f 77 14 44 be
       0.6936173 0.06489838 1.0540506 -0.19148432
000070 ae 13 45 3e 0e 64 81 3f 67 d9 98 bf 92 7b 4b 3e
       0.19245788 1.0108659 -1.1941346 0.19871357
000080 09 35 9b 3f 00 4d 4e 3b f4 46 89 bc e7 fc 43 3f
       1.212556 0.0031479 -0.016757466 0.76557773
000090 32 5a 06 be 84 cc b1 bf b5 74 66 3f 17 4f 74 3f
       -0.13120344 -1.3890538 0.9002183 0.9543318
0000a0 1c db 42 3f d1 62 50 3f 8a df 0b 3e 78 46 3f be
       0.76115584 0.8140078 0.13659492 -0.18679225
0000b0 e6 bd bf bf 2c 92 e2 3d bf c6 98 3f 00 8c bc 3d
       -1.4979827 0.11063036 1.1935652 0.092063904
0000c0 6a b8 ea 3e e3 5d 75 3b 79 57 be 3e b7 d2 2d be
       0.45843822 0.0037439994 0.3717611 -0.16974913
0000d0 5e 74 44 3e a8 1b a9 3e a0 ef 8f 3f 7e 17 29 3e
       0.19185016 0.33028913 1.1245003 0.16512868
0000e0 6b 2c 27 3e 5e 64 3c be b4 0d d0 3d dd 09 f9 3e
       0.16325538 -0.18397662 0.10158864 0.48640338
0000f0 3c 9d 29 3d 6d 48 c7 3f f0 ab 56 3e c2 e3 23 bd
       0.041409716 1.5568978 0.20964026 -0.04001213
000100 00 27 8b 3e cb e6 9f 3c 78 a9 4e 3e d0 e3 9c bc
       0.27178192 0.01951923 0.20181835 -0.019151598
000110 fa 7f b7 3f 40 40 0d 3b 20 72 f6 3d ac be 14 3d
       1.433593 0.0021553189 0.12033486 0.03631465

4.bias f4 [3]
000000 b2 e8 ad 3e 65 81 01 3d b9 dc de 3e
       0.33966595 0.03161754 0.43527773
